logs_final_lunar/multioutputppo/LunarLanderContinuous-v3_1/best_model/policy.pth (torch, 43772 bytes, 12 tensors)

log_std f4 [2]
000000 8d 8f 97 be 3e e0 3b bf
       -0.29601708 -0.7338904

mlp_extractor.policy_net.0.weight f4 [64, 8]
000000 c4 e8 ad be 34 03 ae bc a1 ed a2 be 40 82 29 3e
       -0.3396665 -0.021241762 -0.3182192 0.16553593
000010 81 78 11 3e cf 29 2b 3f 37 13 0c 3e 63 5c 3a 3e
       0.14206125 0.6686067 0.13679205 0.18199305
000020 25 b6 26 bf dc b5 5c 3d 0d 0a d6 bc 1d 3d 68 3e
       -0.6512168 0.053884372 -0.02612784 0.22679563
000030 8f 40 48 3e 3b f6 fe 3e 2c bc df 3d 2b 63 15 3e
       0.19555877 0.49797234 0.10924563 0.14588611
000040 c2 39 f2 be f9 df 5c be e5 d0 bc be 0a 6e 3e 3e
       -0.4730969 -0.21569814 -0.36878124 0.18596664
000050 30 6f 99 3e 7b 89 ad 3e a6 a5 60 bb e2 26 0c be
       0.29967642 0.33893952 -0.0034278422 -0.13686708
000060 7b ae 71 3e 4e 57 05 3e ca 12 86 bd 78 47 fb 3e
       0.23601715 0.13021585 -0.065465525 0.49077964
000070 c2 cb 40 be 76 02 91 be 93 b2 7f bd 99 62 ee 3d
       -0.18827727 -0.2832219 -0.06242616 0.116399
000080 5c 1e 79 be 18 d1 84 3d 71 2a 1f bf 2e f3 89 3e
       -0.24327987 0.06485194 -0.62174135 0.26943344
000090 22 b0 30 3e 9c dd 10 3f f3 ca 01 be 6a 08 86 3d
       0.1725469 0.5658815 -0.12675075 0.065445736
0000a0 ff 2a 52 bd 55 a3 ac bd ba d6 c1 3c 36 e2 78 3d
       -0.051310536 -0.084295906 0.02366196 0.060762607
0000b0 77 2d 6b 3d 3e ed 44 3e 69 f7 df 3c bb 47 6a 3d
       0.057416406 0.19231126 0.027339654 0.057197314
0000c0 3c 58 67 be 06 57 ea 3d bc 6d 52 bd 7b e3 24 be
       -0.22592252 0.1144238 -0.051374182 -0.16102402
0000d0 06 c3 82 3d b5 13 bd 3d 9c bf 73 3e 95 46 84 bc
       0.06384854 0.092322744 0.23803562 -0.016146937
0000e0 77 04 7f 3e 63 e0 ef bd 55 a1 af 3e 45 86 5a be
       0.24904047 -0.1171272 0.34302774 -0.21340282
0000f0 26 90 d2 be 54 70 8e bd 0a fe 9f bd 73 ac 18 3e
       -0.41125602 -0.06955019 -0.07812126 0.14909534
000100 1a 27 99 be 6a e9 cc 3e 08 6f 84 bd 41 93 ca 3e
       -0.29912645 0.4002183 -0.0646649 0.3956547
000110 22 48 87 3e 98 57 b4 bd ef c5 4e be 5c d5 83 3e
       0.2642222 -0.0880577 -0.20192693 0.25748718
000120 1e 19 1e 3d 67 0f 3f bd 6c 2d a4 3d d4 0d 7d be
       0.038598172 -0.04664555 0.08016476 -0.24712306
000130 31 67 7f 3d e5 b5 aa 3d 87 bd 10 3e 1f 8a 5e 3e
       0.06235427 0.08335475 0.14134799 0.21732377
000140 e4 39 0c be 84 cc 1f bd 26 74 28 be e3 7f 79 be
       -0.13693959 -0.0390134 -0.16450557 -0.24365191
000150 99 31 8d 3e 45 b3 dd bd 91 af 05 3d bf 80 35 be
       0.27576903 -0.108252086 0.032638136 -0.17724894
000160 cf 1f 28 3e 8f 67 a2 bb 3c 52 87 3e e0 2f 10 3e
       0.16418384 -0.004956193 0.26429927 0.14080763
000170 ef 00 62 be 3e 09 61 be d3 2a 12 be 4d 26 dc bc
       -0.22070669 -0.21976182 -0.14274149 -0.026873732
000180 cd b6 08 3f e7 7e be 3a 2c 6f d0 3d 3f 3c 1c be
       0.5340393 0.001453367 0.10177454 -0.15257357
000190 db 09 be be ff 29 f4 bd 85 1e 90 3e ff 21 01 be
       -0.37116894 -0.119220726 0.28148285 -0.12610625
0001a0 ad 80 19 3f 22 d7 28 be c7 98 22 3e fa 37 18 be
       0.5996197 -0.16488317 0.15878592 -0.14865103
0001b0 3b b5 7b be 7e 7d 33 be c8 7f 49 3e a3 51 27 be
       -0.24580853 -0.1752834 0.19677651 -0.16339736
0001c0 16 75 f6 3d db ea 5f 3e 8e 02 3e 3e 26 1a 0b 3f
       0.12034051 0.21866934 0.18555662 0.54336774
0001d0 75 8d 1c bf 6e 41 73 be 28 7d 89 3d af 4b e6 3b
       -0.61153346 -0.23755428 0.06713325 0.007028065
0001e0 07 c1 03 be 55 e9 0b bd d2 9b 89 3e fe 4e 67 3d
       -0.12866603 -0.03415807 0.26876694 0.056471817
0001f0 d0 14 58 be 29 bb fc be 80 69 fb ba a6 c4 a2 be
       -0.2110169 -0.49361542 -0.0019181222 -0.31790656
000200 17 33 a4 be 89 dd 08 bb e5 2d f0 3d 38 79 3d be
       -0.32070228 -0.0020883998 0.11727504 -0.18503273
000210 a0 68 ba 39 74 e8 49 be b7 c1 03 be 0d 37 a1 3d
       0.00035554636 -0.1971758 -0.12866865 0.07871828
000220 a1 e9 9c 3a 76 5d 0f 3e fd 18 e4 bd 16 47 a4 3d
       0.0011971482 0.14000496 -0.11137579 0.08021371
000230 73 99 36 3e ad 41 f4 3e 6c 06 96 3e bc b5 c3 3c
       0.17831974 0.47706357 0.29301775 0.023890369
000240 71 2b b7 be fb 46 87 bd 7b 48 2f be 04 13 9b be
       -0.3577533 -0.06605335 -0.17117493 -0.30287945
000250 0d a6 f5 3e 59 4c e8 3e 0b 43 b7 be 0f a3 16 3d
       0.4797825 0.4537075 -0.35793337 0.0367766
000260 4c a2 25 3d 49 5f e1 3d e2 0b 27 3e c4 ba ec 3d
       0.04043798 0.11004502 0.16313127 0.1155906
000270 dc f4 a1 be 75 c2 b8 be b6 41 3c 3d ff 8a 00 be
       -0.31632125 -0.3608586 0.045961104 -0.12553023
000280 6e 48 1e be 9e 56 69 3e b0 f0 ec bd 7e f7 dd 3e
       -0.15457317 0.22786948 -0.11569345 0.43352884
000290 54 a6 4f 3e c5 c1 d0 3d ef 13 87 3e 67 f4 0d be
       0.20278293 0.101932086 0.26382396 -0.13862763
0002a0 72 eb b1 be 83 d6 c9 3d 9c 91 0a 3c a4 77 57 3e
       -0.34749943 0.09855368 0.008457568 0.21041733
0002b0 78 be 01 3d 51 27 c4 3d a1 1f d7 bd e6 7b 59 3e
       0.031675786 0.095778115 -0.105040796 0.2123867
0002c0 5b f8 7d 3e ae 69 98 bd d9 c4 3e bc c9 d8 78 be
       0.24801771 -0.07442032 -0.011643612 -0.24301447
0002d0 98 53 00 bf eb 8e ea be de bf e5 bd 2d cf fb be
       -0.50127554 -0.45812163 -0.112182364 -0.491815
0002e0 69 39 74 3e fc a1 81 be c9 64 93 bc 9a 30 aa be
       0.23850025 -0.25318897 -0.017992394 -0.33240205
0002f0 d8 0a 77 be 98 d6 32 3e 40 dd 30 be a6 a0 57 be
       -0.2412523 0.17464674 -0.172719 -0.21057376
000300 c2 d4 e7 bd 14 4e 2c 3e 26 84 69 be 18 3e ef 3e
       -0.11319877 0.1682666 -0.22804317 0.4672706
000310 8e b4 54 3e be 6d 05 3e ca 5a 96 3e 0c 57 0a bd
       0.20772001 0.13030145 0.29366142 -0.03377442
000320 07 27 de 3e 4a b0 bc be f2 cc 8d 3e 62 e4 c6 be
       0.4338915 -0.36853248 0.27695423 -0.38846117
000330 9b 38 c3 bd 6b 39 46 be 12 ec 00 3e e4 ef 52 be
       -0.09532281 -0.1935784 0.12590054 -0.20599324
000340 e3 63 ab 3e ed 75 6d 3e c2 1c b2 3d 63 3d 51 3e
       0.33474645 0.23189516 0.08696891 0.20433573
000350 11 87 8b be d7 b9 72 3d 4f 77 ad 3b c1 9d b6 bb
       -0.27251485 0.059259262 0.0052937637 -0.005573005
000360 1c 20 a9 39 cc db ca 3d 0e 2b 50 3e d0 41 84 3e
       0.00032258115 0.09905204 0.20328924 0.2583146
000370 58 54 8a be bf 30 c2 bd 46 ff f5 3d ac 68 5e be
       -0.27017474 -0.09481954 0.1201158 -0.21719617
000380 07 5b 97 bd 20 a2 42 be bd 90 99 be 1b 11 a7 be
       -0.07390409 -0.19007158 -0.2999324 -0.32630238
000390 a8 ff a0 3e e2 b0 23 3e 97 51 0e be 3b b8 0b 3e
       0.3144505 0.15985444 -0.13898312 0.13644497
0003a0 90 62 a6 be 35 a8 7e 3e 02 b6 13 be d7 8e fb 3e
       -0.32497072 0.24868853 -0.14424899 0.49132416
0003b0 98 c5 da 3c c2 1b 08 be 33 c3 5d be 09 d3 cc 3c
       0.026705548 -0.13291839 -0.21656494 0.025002973
0003c0 c2 a5 76 bd 01 b9 82 3e 07 0d 83 3d 3c f2 a3 3e
       -0.060216673 0.25531772 0.06398969 0.32020748
0003d0 b5 53 d1 bd 98 5d 2c be a0 5a 7e bd 64 63 00 3e
       -0.10221044 -0.16832578 -0.062098145 0.12537915
0003e0 ab f4 18 bf bc ed 8c bd 57 07 0b bf d6 f8 85 bd
       -0.59748334 -0.06881282 -0.54308075 -0.06541602
0003f0 af 61 ff 3e 96 87 30 bd 0a 77 e5 3d 85 76 dc 3d
       0.49879214 -0.043098055 0.112043455 0.10764793

mlp_extractor.policy_net.0.bias f4 [64]
000000 67 be 39 3d ad 01 62 3d b2 bb fe 3d 4c 04 c0 3d
       0.045347597 0.05517738 0.12438144 0.093758196
000010 c0 db 59 3d c8 66 56 3d ac 17 c9 bd d9 1a e4 bc
       0.053188086 0.052344114 -0.09818968 -0.027844833
000020 6d 1f 69 3c 33 72 25 bd d5 86 bc bd 7e c2 a8 3d
       0.014228684 -0.040392112 -0.09205405 0.082402214
000030 77 43 82 bd dc 90 0e 3c 07 71 95 3d 5b 07 84 3d
       -0.06360524 0.008701529 0.07296949 0.064467154
000040 e4 a8 a1 bd 69 46 15 bd e0 a7 36 bd 8b dd 21 3c
       -0.078935415 -0.0364441 -0.04459369 0.00987948
000050 40 69 58 3d 91 7b 97 3c 4e b3 52 bd 12 ad 5b bc
       0.05283475 0.018491538 -0.05144053 -0.013407962
000060 b5 23 66 3d 30 d8 13 3c 96 b7 50 bd 68 67 9c 3d
       0.056186397 0.009023711 -0.05095633 0.07636911
000070 88 a1 1f bd b7 62 94 3d 58 ef 2e bb c4 93 0f bb
       -0.038972408 0.07245391 -0.0026692953 -0.0021908144
000080 a1 4c 98 bd ec a6 c5 bd 57 ce d7 3c ec ff 57 bb
       -0.07436491 -0.096509784 0.026343508 -0.0032958938
000090 ce be 93 3d 95 eb b2 3c 3f df e3 3b 76 17 95 3c
       0.072141275 0.02184085 0.0069541032 0.018199664
0000a0 61 5d 99 bd 22 94 8f 3d 82 07 76 38 57 90 85 3d
       -0.07488514 0.07010676 5.8657963e-05 0.06521671
0000b0 bf 72 61 3d 8a cb 3c bc 89 11 d5 3c b9 de 97 3d
       0.05504107 -0.011523137 0.026009338 0.07415528
0000c0 64 18 f1 3d 0e b1 96 bd 00 7a bd 3d 1f 06 2f 3c
       0.1177223 -0.07357989 0.09251785 0.010682612
0000d0 8c 3f ed 3d f4 e8 4a bd fc 6d bb 3c ad a2 6d 3d
       0.11584386 -0.049538568 0.022879593 0.058016468
0000e0 58 07 ae 3d 91 c8 28 3d fd e6 13 bd 19 a9 b5 bc
       0.084974945 0.0412069 -0.03610896 -0.022175359
0000f0 09 33 fe bc 47 20 0d be e5 01 a9 bb 37 3e 6f 3d
       -0.031030195 -0.13781844 -0.0051576965 0.058408942

mlp_extractor.policy_net.2.weight f4 [64, 64]
000000 d7 11 ad 3d f0 94 ba be c0 aa 2e bc 1d c5 7a be
       0.08450668 -0.36441755 -0.010660827 -0.24489255
000010 3d 67 a7 3d 91 32 6e 3e 5a 9b 30 3e 3e da 78 3e
       0.08173988 0.23261477 0.17246762 0.24302003
000020 b6 8a a7 3d b9 b5 7e be ce 86 c4 bd 5b f8 d6 3d
       0.08180754 -0.24874009 -0.095960245 0.10496589
000030 d7 f6 0c 3d f5 50 27 be a1 83 40 3e a5 ee b0 3d
       0.034415092 -0.16339476 0.18800212 0.08639268
000040 96 9a 82 bd e6 c0 ac bd 49 eb a7 bd 72 77 58 bd
       -0.06377141 -0.0843523 -0.08199174 -0.052848287
000050 62 5a c2 3e ca 8a 88 bb 50 00 cf bd 74 fa ef bc
       0.37959582 -0.0041669356 -0.101074815 -0.02929423
000060 29 1c 88 bc 08 c1 44 be 16 55 b9 bd 2f f5 bf be
       -0.01661499 -0.1921426 -0.09049432 -0.37491748
000070 b0 9a 9a bd b9 da c4 bd 6d 19 92 3d 76 29 0a be
       -0.075490355 -0.096120305 0.07133756 -0.13492379
000080 92 32 a0 3e fe 20 3d be e2 d6 25 be 4f 4a fa 3d
       0.31288582 -0.18469617 -0.16195253 0.122212045
000090 da c1 97 bb 71 c3 b6 3e de 56 8d be fc ff b6 3c
       -0.004631263 0.35695985 -0.27605337 0.02233886
0000a0 ea e8 a7 3d 1c 55 c0 3e 37 c2 d9 bd 1a af 18 3e
       0.08198722 0.37564933 -0.10632747 0.14910546
0000b0 d3 dc 21 3d 27 02 f8 bb 4a a0 0f 3e 05 d2 c3 3d
       0.039517235 -0.007568616 0.14025989 0.095615424
0000c0 ef 19 0c be 39 2b f1 bb 87 52 3c 3e 47 28 81 bd
       -0.13681768 -0.007359889 0.18390857 -0.063065104
0000d0 a5 cc 00 be 4e 75 79 3e d1 28 79 bd b8 1f e4 bd
       -0.12578066 0.24361154 -0.06082994 -0.11138862
0000e0 0c d8 e0 bd d5 a2 9a 3d 84 7b 4d be 33 9c a1 3e
       -0.10978708 0.07550589 -0.20066649 0.31564483
0000f0 5e e2 14 be 8d a2 3d be c4 ae 4c 3d 0b 4f 94 3c
       -0.14539477 -0.1851904 0.049971357 0.018104097
000100 59 da 54 be 76 f7 fa 3d e5 97 15 bf 19 26 90 3d
       -0.20786418 0.12254231 -0.584349 0.070385166
000110 18 96 f9 be 49 ce 71 3e 84 8e 5b bd 77 e1 d7 3c
       -0.48747325 0.23613848 -0.05360271 0.026352627
000120 05 38 2f 3e 01 9c 73 3d 52 5f a2 be 6a d4 ee bd
       0.17111214 0.05947495 -0.3171335 -0.116616085
000130 5e 87 85 3d 95 8b a2 3e 6b 00 32 3e 80 9f 88 be
       0.0651996 0.31747118 0.17382972 -0.2668419
000140 ce db 10 be 1e da 03 bd ba 29 f8 be 93 2b 6c 3d
       -0.14146349 -0.032190435 -0.48469335 0.057658743
000150 da 65 7b 3e c8 e5 70 be 10 a0 4b 3e 0e 99 92 be
       0.24550572 -0.23525155 0.19885278 -0.28632396
000160 31 df 1b 3e 56 ea 82 3e 10 88 0f 3d 7b 8a 4b be
       0.1522186 0.2556941 0.03504187 -0.19877045
000170 35 60 8a bd eb 50 89 be fa 6c 06 3e 4d 1c 72 3d
       -0.06756631 -0.26819548 0.13127509 0.05910902
000180 c4 db 8c be d5 99 13 be 7d 10 f7 bb 0c 4a a7 3e
       -0.27511418 -0.14414151 -0.0075398074 0.3267368
000190 d9 aa 06 be 66 00 89 be 55 98 19 3e f7 e7 8d 3e
       -0.1315111 -0.26758116 0.14999516 0.27716038
0001a0 15 3d 14 3f 7e d2 0b 3e 25 19 2b bb 3f d9 e7 bd
       0.57905704 0.13654515 -0.0026107517 -0.11320733
0001b0 3f ea c1 3e 90 8e f4 be 1c ae ca 3e ae 9d 8e bc
       0.37874028 -0.47765017 0.3958596 -0.017409172
0001c0 ee c9 37 3e ec d6 5a 3e 40 12 af bd a2 95 ba be
       0.17948124 0.21371049 -0.08548403 -0.36442286
0001d0 25 56 13 3e 65 cb 14 bf ef 43 eb 3e 02 07 eb 3d
       0.1438833 -0.58122855 0.45950267 0.11475946
0001e0 c6 17 68 ba 94 5b 57 3d b0 a8 48 3d 35 15 b4 3e
       -0.000885364 0.05257757 0.048988998 0.3517243
0001f0 9e 78 05 3e c0 85 5d 3e eb c3 cb 3e 94 13 38 3c
       0.13034293 0.21633053 0.3979791 0.011235137
000200 68 1e bd be eb 42 c0 bd 8e cc 4f bd 89 6e a7 be
       -0.3693726 -0.093877636 -0.050732188 -0.3270152
000210 63 04 c9 bd 64 91 fd bd 6b 28 8b 3d f5 87 f5 bd
       -0.0981529 -0.12381247 0.067948185 -0.11988822
000220 30 49 35 be 92 1d 7e be 40 39 68 3e b4 61 da 3d
       -0.177037 -0.24815968 0.22678089 0.10663167
000230 6e c8 58 3d 6a 11 4d 3e 2b e1 67 3e 83 c5 11 3e
       0.05292552 0.20026174 0.22644489 0.14235501
000240 d8 91 7a be a2 a7 d2 be 08 3f 92 be e3 be 1e 3e
       -0.24469697 -0.4114352 -0.28563714 0.15502505
000250 2e d4 b9 be 81 85 3e 3d fe cd 02 3f 2e ec 74 3e
       -0.36294693 0.046514038 0.5109557 0.2391822
000260 77 34 46 be dd b3 ac 3e cf c5 8e 3e 41 41 f5 bd
       -0.19355951 0.33730975 0.2788529 -0.11975337
000270 ee cd bf be 1f b5 3c 3e 52 54 51 3e 21 91 2f be
       -0.374618 0.18428467 0.20442322 -0.17145206
000280 12 16 d8 bd 32 6d 1a bd 1a da b6 3e 31 f4 c4 be
       -0.105510846 -0.037701793 0.35713273 -0.38467553
000290 a5 be 6e 3e 30 41 19 be 91 e8 0a 3e d6 38 01 3f
       0.23314913 -0.14966273 0.1356528 0.5047735
0002a0 a1 5b 2e 3f 89 3d bb 3e 0a d2 fe 3d 4f bb 0e bd
       0.68108565 0.36570385 0.124424055 -0.0348466
0002b0 3f 62 4a 3e ee 93 ab be 69 2e 79 3d 6f 2e 0a bf
       0.1976404 -0.335113 0.060835276 -0.539771
0002c0 1a cd 8f 3e 35 21 59 3e 22 09 87 3e 04 0f eb 3d
       0.28086168 0.21204074 0.26374155 0.114774734
0002d0 13 e1 ee bc 40 ab 16 be 7a 6f 97 3d e4 ca 19 3e
       -0.029160058 -0.14713764 0.07394309 0.15018803
0002e0 51 7d 81 be a1 f0 50 bd de 0a a7 be f2 16 06 3f
       -0.2529092 -0.05101073 -0.32625479 0.5237876
0002f0 ce c3 d4 3d 5c f0 a5 bd fe 6c 58 3e c3 00 80 3e
       0.10388909 -0.081024855 0.21135327 0.2500058
000300 15 38 ab 3d ad 02 4d be 95 0d 01 3e d7 77 e8 3d
       0.08360306 -0.20020552 0.12602837 0.11350983
000310 f0 56 18 3c f5 9e 8a 3d d6 50 1e 3c 5e fd 01 3d
       0.009298071 0.067686 0.0096628275 0.03173577
000320 26 b7 97 3d c1 27 35 3e be 68 9b bd 93 9a 28 be
       0.0740798 0.17690946 -0.07588337 -0.16465215
000330 7c db 58 be a4 63 a8 bd 72 f6 6d bd 2d 31 6b 3e
       -0.21177477 -0.0822213 -0.058096357 0.22967978
000340 f6 27 b9 be 71 e2 1c be 3d dc 68 3e 59 0a 5a bd
       -0.361633 -0.15320756 0.22740264 -0.053232525
000350 a5 35 19 be 26 9b 80 be 14 b4 f0 3d dc 57 17 3c
       -0.1496187 -0.2511837 0.11753097 0.009237256
000360 6b 7a f2 bc 04 57 71 3c 03 0a a3 bd c5 ce 09 3e
       -0.029599389 0.014730219 -0.07960894 0.13457783
000370 1b cb 1b 3e b1 40 93 bd 8c 9f 26 3e 45 35 c9 3d
       0.15214197 -0.07190073 0.162718 0.098246135
000380 c1 a2 05 bd 0a ae 63 bc 04 23 18 bd fe 71 28 3e
       -0.032625917 -0.013896475 -0.03714277 0.16449735
000390 49 d2 56 be 9e 77 b3 3d b6 0f 8b bc 7a a4 85 be
       -0.20978655 0.087630495 -0.016975265 -0.26102048
0003a0 c8 e8 9e 3d b7 91 1e 3e 93 e5 84 bd 91 fb 68 be
       0.07759243 0.15485273 -0.064891 -0.22752215
0003b0 6a 09 b3 3e d2 94 08 be 99 a2 8e be d1 36 c4 be
       0.3496812 -0.1333802 -0.27858427 -0.38323072
0003c0 5c b7 6a 3d 35 73 2d be 44 b1 5f 3d 2f 5c 79 be
       0.05730377 -0.16938479 0.054612413 -0.24351572
0003d0 df 88 40 be 5f 7a ef 3d 26 13 b1 3d d7 78 3c 3c
       -0.18802212 0.11693262 0.086462304 0.01150342
0003e0 6e bc 9b 3e 25 2e 4d be f9 bb 87 3e 59 8a 62 bc
       0.30417198 -0.20037134 0.265106 -0.01382693
0003f0 40 5a 0d bd 8b 4d 80 be 9d 11 ca 3e c2 63 5a bc
       -0.034509897 -0.2505916 0.39466563 -0.013329448

mlp_extractor.policy_net.2.bias f4 [64]
000000 f5 b2 d0 bc 91 cc 01 3d c6 57 50 bd 9a fb 02 bd
       -0.025475958 0.03168923 -0.050864957 -0.031978227
000010 10 f0 92 3d 8f de 05 3d f9 70 68 bd f6 fc 55 3d
       0.071746945 0.03268295 -0.056748364 0.052243195
000020 f6 b3 07 bd 40 1b 49 3d 7a de 5e bd 44 ed e3 bb
       -0.03313061 0.049098253 -0.05441139 -0.0069557745
000030 fe 32 eb 3c e5 00 33 bd 3c 62 83 bd df 74 4a bd
       0.028710838 -0.043702025 -0.06415221 -0.049427863
000040 ff cd 81 3d c7 ea 93 3c a1 f6 71 bc c8 c5 ca bc
       0.06338119 0.018056286 -0.014768274 -0.024752513
000050 48 70 30 bc 8c 47 bc 3b d1 4d 98 bc 34 c8 40 bc
       -0.010768957 0.0057458337 -0.018591793 -0.011766482
000060 5d 1a 9b bc 61 f5 40 bd d3 6d c3 3c f6 51 83 3d
       -0.01893347 -0.04710901 0.02385608 0.06412117
000070 0d a0 ee bc 75 de df 3c 6f c5 52 3d 63 81 41 bb
       -0.029129053 0.027327755 0.05145782 -0.0029526583
000080 0a 51 7c bb 44 8b 58 bc b5 2f 0a 3d 6c a0 24 bd
       -0.0038500451 -0.013216797 0.033736903 -0.040192053
000090 50 6a 94 bc 8f 0c 91 3c 7f b3 b1 bc b8 a5 41 3c
       -0.0181171 0.017706184 -0.021692036 0.011819296
0000a0 06 11 c1 3c a3 d1 62 bc 10 d5 08 3d ce ad ef 3b
       0.023567688 -0.013843927 0.033406317 0.0073144203
0000b0 c4 e6 70 3c cc 9d e8 3c 66 7e 67 3d 7f 6b 59 bd
       0.014703456 0.028395556 0.056517027 -0.053081032
0000c0 d5 fc 80 3c 97 92 81 3d 92 65 31 bd 7f 19 77 3c
       0.01574556 0.06326788 -0.043309756 0.015081762
0000d0 1c fd ea bc 6f 56 24 bd 12 3a 18 3d 96 c0 8f 3c
       -0.028685145 -0.040121492 0.037164755 0.017547887
0000e0 e6 08 7a 3c f7 82 44 3c ac 37 1a bd 27 dc 42 bd
       0.015260911 0.011994115 -0.03765075 -0.047573235
0000f0 aa d0 89 3c 03 dd 0f bd 4b 3b da 3c ea 69 ae bd
       0.016823132 -0.035122883 0.026639601 -0.08516295

mlp_extractor.value_net.0.weight f4 [64, 8]
000000 05 6b dc be fa 84 2c be 3f bf db 3b ba 70 8f bf
       -0.430504 -0.16847602 0.006706148 -1.1206276
000010 4f 78 c9 be 9d 22 80 3e 4f ad 6d 3e 37 41 11 3f
       -0.393496 0.25026408 0.23210643 0.56740135
000020 61 11 aa be ff 8f 61 bf cf 6d 5d 3e 81 cd 09 bf
       -0.33216384 -0.88110346 0.2162392 -0.538292
000030 87 bd cb 3f fb 2a c0 3e db e4 96 3d 87 55 f5 bc
       1.5917214 0.37532791 0.073678695 -0.02994801
000040 79 01 e4 bc 43 e8 b6 3e 93 fe 86 3f 5d 2d 25 3e
       -0.027832733 0.35724077 1.054644 0.16130586
000050 e4 7a ba 3f f7 4e cc 3d 0b 85 21 be d8 6d ee 3c
       1.4568753 0.09975999 -0.15773408 0.029105112
000060 9c e5 da bd 85 6d 99 bc 4a 2d dd 3c ad 9e 2c 3f
       -0.10688326 -0.01872898 0.026999135 0.6742962
000070 f7 40 f2 bd ad 38 81 3e ca 9a 48 be 9c 73 1d 3d
       -0.11828797 0.25238553 -0.19590297 0.03844033
000080 4a cf 17 bf 47 84 2e bf cf 20 2d 3f dc c5 59 40
       -0.59300673 -0.6817059 0.67628187 3.4027014
000090 b7 99 72 bf 17 eb 25 3e ef a9 87 3e fa 63 c1 bd
       -0.947658 0.16202961 0.26496837 -0.09442897
0000a0 0d 1a 4f be ef 92 32 bf 55 1a bd be e5 9e 8e bd
       -0.20224781 -0.6975545 -0.36934152 -0.069639005
0000b0 bc 6c dc 3e 36 7c 7d bd e0 0a 71 3d 30 5e 42 3e
       0.43051708 -0.061886035 0.05884826 0.18981242
0000c0 d6 2d b1 be 47 95 3a bf 3e 90 12 40 03 85 60 3e
       -0.34605283 -0.7288403 2.2900538 0.2192574
0000d0 fb 36 b0 be d2 d0 43 bb ca 9d 58 be b2 ac 0a be
       -0.34416947 -0.0029879105 -0.21153942 -0.1354244
0000e0 c7 a0 d0 bb ef 6f fd be 1c a3 eb bd 6f 46 40 3f
       -0.0063668224 -0.4949946 -0.1150572 0.75107473
0000f0 e5 85 25 3f 7a ee d1 3e 29 0c bd 3d 62 d2 a1 3e
       0.6465743 0.41002256 0.09230835 0.31605822
000100 b1 0f 32 bc 6b 93 d5 be ce 2c 82 3e 52 f5 d8 3e
       -0.010867999 -0.41714033 0.25424808 0.42374665
000110 ce 5c 95 be 0b 3f d7 3d e8 88 3c 3e 95 27 8b 3e
       -0.29172367 0.10510071 0.184116 0.27178636
000120 ed 63 c3 3f d7 25 f9 be d7 62 21 40 98 57 6d be
       1.526487 -0.48661682 2.5216577 -0.23177946
000130 d7 83 1c bf ae 56 af 3d d9 10 13 bd 3a 10 84 3d
       -0.6113867 0.08561455 -0.03590474 0.064484075
000140 e4 75 fa bd 3b 0a 14 bf 6c 21 fd 3b e8 62 4e 3e
       -0.12229517 -0.5782811 0.0077249315 0.20154917
000150 3a 44 c4 be 78 21 44 3c cb 0f bc bd 19 73 ec 3e
       -0.38333303 0.01197087 -0.091827 0.46181563
000160 21 8c ac 3e 2f 93 ec be da 50 3d 3d 60 19 27 3e
       0.3370066 -0.46206042 0.046219684 0.16318274
000170 de 2c 56 be f8 73 ae bd 05 78 ea 3d 55 c2 f2 be
       -0.20915553 -0.08518213 0.11448673 -0.4741389
000180 e1 3e 0c bf b8 35 0b 3f e4 a2 13 3e 2f 35 3b be
       -0.54783446 0.54378843 0.14417607 -0.18282007
000190 e4 f6 0d 3e 59 fc a2 bd a3 11 d4 bd 77 14 ec 3d
       0.13863713 -0.07958288 -0.103549264 0.11527341
0001a0 e1 99 5b bf a8 d3 f8 3e 5e 2e 62 be 01 35 4d ba
       -0.85781676 0.4859898 -0.22088 -0.00078280276
0001b0 2a 76 1f 3f 7a 51 78 be 85 49 15 bf 0b 77 43 bf
       0.6228968 -0.24249831 -0.58315307 -0.7635352
0001c0 15 e9 c7 be f8 d3 d1 3e 7c 4c b5 3e a2 84 4b 3c
       -0.39045015 0.40982032 0.35409915 0.012421759
0001d0 67 05 4b bf 74 50 91 3e 19 1d 50 3e 64 d2 a4 3e
       -0.7930512 0.28381693 0.203236 0.32191765
0001e0 3d a1 64 bf 22 f9 a0 3e 99 5a bd 3f ba b4 cf bf
       -0.8930853 0.31440073 1.4793273 -1.6227028
0001f0 68 f5 2b c0 90 1c ad bd 8b ec 45 bc 21 47 98 be
       -2.6868534 -0.084527135 -0.012080322 -0.29741767
000200 89 89 24 3f 81 90 46 3f 59 b6 0a 3f 05 ff 7c 3e
       0.6427236 0.77564245 0.5418449 0.24706657
000210 6c 70 eb be 99 88 18 3e db 44 ae bd eb 33 e8 be
       -0.4598421 0.14895858 -0.08509227 -0.4535211
000220 07 84 57 3f 7f b9 b5 3e 6c 52 10 3f 4f c0 fd be
       0.8418583 0.35493085 0.56375766 -0.49560782
000230 0c 26 76 bf 15 f3 f9 3d 33 86 20 3e ed 32 8b be
       -0.96151805 0.12204567 0.15676193 -0.2718729
000240 8c 27 11 be 80 a4 23 be 14 74 60 bc c2 60 1d 3f
       -0.14175242 -0.1598072 -0.01369955 0.61475766
000250 06 7c 93 3e 9d 21 30 be 8b 09 eb 3e 76 af c5 3d
       0.2880556 -0.17200322 0.45905718 0.09652607
000260 b4 38 90 be e2 6a 94 3e 80 b3 2f bf 09 2f 60 3f
       -0.2816826 0.28987795 -0.6863327 0.8757177
000270 a3 a7 8e bd 6b 04 1a 3e db 84 25 3e 3b cc bb 3d
       -0.06965568 0.15040748 0.16163962 0.09169813
000280 a6 ad 22 40 41 75 8d be f0 e1 05 bf ba ba a2 3d
       2.5418487 -0.2762852 -0.5229788 0.079457715
000290 08 68 e5 3e 6d 71 c6 3d bf d5 be 3d 53 fa 99 bd
       0.44805932 0.09689603 0.093181126 -0.07518449
0002a0 f2 bd df bd cb 13 1d 3e e4 ed 05 3f ed 25 94 be
       -0.10924901 0.15339582 0.5231612 -0.28935185
0002b0 a0 3d 65 3f 47 d4 68 be e3 2e 2f 3e 14 fe f1 3e
       0.8954716 -0.22737227 0.1710773 0.4726416
0002c0 b9 77 e3 bc 8b 51 d6 be f0 17 79 3e 66 0e 0f bf
       -0.02776705 -0.41859087 0.24325538 -0.55881345
0002d0 99 ac 11 40 83 7f e7 3d 68 5d ba bd 47 86 23 3e
       2.2761595 0.11303618 -0.09099847 0.15969191
0002e0 97 4b 8d 3f f0 e9 85 bd a6 56 ed 3e 22 7b 74 3f
       1.1038693 -0.06538761 0.4635517 0.95500386
0002f0 5f 7f 07 40 8d f3 71 3c cd fd 20 3b 09 bf 21 3f
       2.117149 0.01476754 0.002456534 0.6318212
000300 d6 f6 67 bd df 0f 1a bf 8b 34 88 bd 97 0f 0b 3b
       -0.056631885 -0.6018047 -0.06650647 0.002121901
000310 79 41 2b 3d 0b b2 69 bd 03 04 3b 3e 64 5e 73 3d
       0.041810486 -0.05705456 0.18263249 0.05941619
000320 ee 03 6b 3f 82 f5 c2 be ec 1c 4d 3e 18 1c df 3e
       0.9180287 -0.38077933 0.20030564 0.4357612
000330 98 e2 e9 be 02 8a 28 3f 51 8d 1f 3e 0f 48 29 3e
       -0.4568069 0.65835583 0.15581252 0.16531394
000340 c8 15 ca 3f aa 56 35 3f 1e d3 e0 bd 24 2e 4b bf
       1.5787897 0.70835364 -0.109777674 -0.7936728
000350 60 c3 6f 3f e0 02 6b bd 3c 77 e8 bc 45 d4 46 bd
       0.93657494 -0.05737579 -0.028377168 -0.04854228
000360 38 c7 19 be 41 a8 01 be bc 7d 19 3e d5 17 91 be
       -0.15017402 -0.1266184 0.1498937 -0.28338495
000370 c4 19 bf 3f 83 cf 19 3e a7 c8 ab 3e 05 d1 a1 be
       1.4929738 0.15020566 0.33551523 -0.31604782
000380 d5 4d 28 be 4b b9 0c 3f 4d e4 29 3e be d0 74 be
       -0.1643594 0.54970235 0.16590996 -0.23907754
000390 67 cd 21 3a 42 a8 4b bd 98 cf b5 bc 23 23 43 be
       0.000617227 -0.04972101 -0.022193715 -0.19056372
0003a0 9a 85 65 bf 89 3e 2a bf 88 bc 71 bc ba 31 92 be
       -0.89656985 -0.6650167 -0.014754422 -0.28553563
0003b0 21 dd a6 bf 22 c1 37 3e 3f 87 f7 bc 23 26 a1 3e
       -1.3036233 0.17944768 -0.030215858 0.31474409
0003c0 24 10 f5 3e 89 eb 1f be fd 35 c9 3f e2 44 08 be
       0.47863877 -0.15617193 1.5719601 -0.13307527
0003d0 e8 70 9b bf b3 ba 51 be be 89 dc be 9a 6f 08 3f
       -1.2143831 -0.20481376 -0.4307384 0.5329529
0003e0 97 8c 06 be 25 53 01 3f e4 db 01 3e 02 bc 82 be
       -0.13139568 0.50517493 0.12681538 -0.25534064
0003f0 94 ac f3 bb 87 ec 9b 3e 49 78 2c 3e 3e ed 0c 3e
       -0.0074363444 0.30453894 0.1684276 0.13762376

mlp_extractor.value_net.0.bias f4 [64]
000000 eb 31 8b 3f 48 fe 28 bf c2 1e c2 3e 14 5b 4a 3f
       1.0874609 -0.66013 0.3791409 0.79045224
000010 e8 0a fd bd a8 ce b9 be 3e aa 9e be d8 61 94 be
       -0.12355596 -0.3629048 -0.3098926 -0.289809
000020 ac a2 ab 3d c7 58 74 3e 44 b6 42 3e 15 01 c4 bd
       0.083806366 0.23861991 0.19014841 -0.09570519
000030 d1 03 48 bc e5 e9 89 be fc f4 70 be d2 83 7b 3e
       -0.012207941 -0.2693626 -0.23530954 0.24562004
000040 5f 6a 10 3f c6 ff 10 be f6 0d 03 3f 6b e0 3e 3f
       0.5641231 -0.1416007 0.5119318 0.74561185
000050 8a f2 89 be 5a 8d ee be 3e 88 91 be 73 54 0b be
       -0.26942855 -0.46592218 -0.28424257 -0.13606434
000060 c0 1b 71 be 4a 76 98 be 3c 0a ad 3e 0d 54 27 3e
       -0.23545742 -0.29777747 0.3379687 0.16340657
000070 b1 2e 95 3b a6 54 0a bf 38 d6 05 bd a0 d7 45 3e
       0.004552685 -0.54035413 -0.032674998 0.19320536
000080 4e 18 86 be f4 2a 3c bf 10 68 03 bf 87 6a 25 3f
       -0.26190418 -0.7350304 -0.5133066 0.6461567
000090 38 5f 32 3e d4 5c 2b be 9a 7d 18 3f a0 0a c6 3e
       0.17419136 -0.1673463 0.5956665 0.3867998
0000a0 cd b9 5a 3e e5 ed ec 3e 2e b8 99 bd fd 97 f7 3c
       0.2135994 0.4627525 -0.075058326 0.03022384
0000b0 47 6f 9a be b3 62 63 be b6 04 36 be 4a 5e dd 3d
       -0.30163023 -0.2220562 -0.17775235 0.10809
0000c0 fe 51 44 bf 8f 53 c2 bb 99 97 42 be 92 b4 2d 3d
       -0.7668761 -0.005930371 -0.19003142 0.042408533
0000d0 21 cf d9 be b2 62 06 3f 1b 75 39 bf cb a0 00 be
       -0.4254084 0.5249435 -0.72444314 -0.12561338
0000e0 4f 46 a4 3e 43 fd 23 3f a6 7a 1c bf 3f 82 47 3d
       0.3208489 0.6405832 -0.61124647 0.048708197
0000f0 3c 9d ce bd 01 7e 0d be 01 ba 65 3e c3 e2 92 3e
       -0.10088584 -0.13817598 0.22434236 0.2868863

mlp_extractor.value_net.2.weight f4 [64, 64]
000000 8b 4b 4a 3c c7 c1 3c bf 71 2c 83 3f 27 10 72 3f
       0.012347112 -0.7373318 1.0247937 0.94555897
000010 dd 56 86 be 68 b9 9f 3d 35 45 c1 be 2c d6 e4 3c
       -0.26238146 0.07799035 -0.37748113 0.027934156
000020 19 26 a6 3f c3 01 dc bd dc d4 af 3e 46 4c d1 3d
       1.2980376 -0.107425235 0.34342086 0.10219626
000030 3a 83 99 be 47 27 e2 be a3 2e 85 be b5 cc 2f 3f
       -0.2998293 -0.4417059 -0.26012143 0.68671733
000040 3e d6 6d be fc 38 4f bf be ba fd 3f 08 07 88 3f
       -0.23226258 -0.80946326 1.9822614 1.0627146
000050 d7 ba 7d bf 29 09 5e bf c7 5d 00 bf fb d9 19 bf
       -0.9911322 -0.8673273 -0.5014309 -0.60098237
000060 7e 42 1f 3f 95 e1 18 3e 94 99 b4 bd 6d a1 d2 3e
       0.62210834 0.14929803 -0.08818355 0.41138783
000070 dd 6c 01 bf 9a 50 14 bf b2 02 35 bf b5 76 cc be
       -0.5055674 -0.5793549 -0.7070724 -0.39934316
000080 5a ac c0 3e 88 4a ab bf 9b 5e fd 3d fc 55 59 3f
       0.37631494 -1.338212 0.1237156 0.84896827
000090 c8 05 ce 3f 19 2a 6e 3c e4 11 db 3e 09 ca a8 3f
       1.6095514 0.014536404 0.42787087 1.3186656
0000a0 b2 3e db 3f 07 ce 23 3e c6 b3 f1 be 78 21 68 3f
       1.7128508 0.15996562 -0.4720747 0.9067607
0000b0 59 f2 70 bf 50 87 25 bf 1b 3c 5e bf 82 57 e9 be
       -0.94119793 -0.64659595 -0.86810464 -0.45574576
0000c0 6a 79 05 3d b1 21 82 3e 8b c6 a0 bf 63 fd 04 bf
       0.032586493 0.2541633 -1.256059 -0.5194914
0000d0 61 2c f4 bf 0d c0 b6 3e fe 04 a5 bf ea 7b 61 3f
       -1.9076043 0.35693398 -1.2892148 0.880797
0000e0 f7 db f4 3e 12 9a f3 3e 46 0a e7 3d 50 4c 1f bd
       0.4782407 0.47578484 0.112812564 -0.038891137
0000f0 80 f1 40 bd 60 39 d9 be 5c 97 86 3e 84 a5 d1 3e
       -0.047105312 -0.42426586 0.26287353 0.4094659
000100 e8 ee db 3d fb 3a d5 be a3 90 ab bc ab 94 72 be
       0.10738927 -0.4164656 -0.020942992 -0.23689525
000110 b8 2b 0f 3f 70 23 74 bf 16 81 93 3f 21 8f 42 bf
       0.55926085 -0.95366573 1.1523769 -0.7599965
000120 55 9c 06 be 81 57 27 3f 3b 92 0b be b9 49 c3 be
       -0.13145573 0.65367895 -0.13630001 -0.38142183
000130 96 d0 11 3f 5e cb 0c 3e ac 28 78 be 5a 86 02 3f
       0.569589 0.13749453 -0.24234265 0.50986254
000140 78 06 61 3f 72 96 2f 3f 55 49 6a bb 0e 44 30 be
       0.87900496 0.68588936 -0.0035749276 -0.17213461
000150 31 da 80 bf 0b 11 25 3e db 43 97 bc a9 89 da bd
       -1.0066587 0.16119783 -0.018464973 -0.10670788
000160 d3 0f 85 be 7e 39 06 bf c5 b8 12 bf 81 2a cf 3d
       -0.25988635 -0.52431476 -0.57313186 0.10115529
000170 60 92 48 3e 61 d6 61 3e 97 27 95 3e 41 62 f1 3e
       0.19587088 0.22054435 0.29131767 0.47145274
000180 6c 9a 9a be fd 95 b0 3c 95 cf 49 be 38 7f 69 bf
       -0.3019594 0.021555895 -0.19708093 -0.91209745
000190 61 e7 4f bf db 2f 92 3e cc b2 cf 3f b1 c8 5b be
       -0.8121243 0.28552136 1.622644 -0.21463276
0001a0 bd a4 1f be c2 e9 37 3f 4e cd 24 bf 70 5e 84 be
       -0.15590186 0.7184106 -0.6437577 -0.258533
0001b0 d2 2a a7 3f 42 9b 24 bc 4d fb 86 3c 34 9e 47 3f
       1.3059943 -0.010046782 0.016477251 0.77975774
0001c0 3d f2 3a bf c5 03 4f bd e8 f6 3b 3d f5 7d ea 3e
       -0.73025876 -0.050540704 0.045889765 0.45799223
0001d0 34 46 b4 be 61 90 74 3d f7 4b 1a bf 90 65 f8 3d
       -0.3520981 0.059708003 -0.60272163 0.121287465
0001e0 ff 66 fd 3e 42 50 89 3d a0 ab 4f bf ad 59 02 3f
       0.49492642 0.06704761 -0.81121254 0.50918084
0001f0 2c 7e a5 be 0b 16 45 3f 89 73 3a 3e 0b c6 46 bd
       -0.32322824 0.7698676 0.18208136 -0.048528712
000200 c8 c5 1b 3e f9 f6 5a 3e 6d f7 33 3f 9f 0f 0e 3f
       0.15212166 0.21383275 0.70299417 0.55492586
000210 ae c6 77 be a0 e2 31 3e c5 55 22 be ec b0 24 3e
       -0.24196884 0.17371607 -0.15853031 0.16083115
000220 0f f7 58 3f 5f 02 bb 3e 13 d7 64 3f 49 e7 2c 3f
       0.8475198 0.36525247 0.8939068 0.67540413
000230 3a 2d 46 bf c8 1b a7 bf 33 d5 93 be 7c 29 33 3f
       -0.7741276 -1.3055353 -0.28873596 0.69985175
000240 e2 cc 04 3e de 6a 0c be cb e7 d5 3c bd 2e 5c bd
       0.12968782 -0.13712642 0.026111504 -0.05375551
000250 04 4d 93 3d 16 fe dd be 5f e2 8b bd 43 19 1d bf
       0.07192424 -0.43357915 -0.06830286 -0.6136667
000260 3a 2f 46 3e 16 be 2f 3f 7d 5d 92 3e bb 2e 16 3f
       0.19353953 0.68649423 0.2858695 0.58665055
000270 a4 06 7c bf 92 b0 58 be 55 bc f9 bd 7c 84 61 bf
       -0.9844763 -0.21161106 -0.121941246 -0.8809278
000280 76 cc 6f 3f a9 0c 82 be b3 f6 b5 bd f9 11 27 3f
       0.9367136 -0.25400284 -0.08884945 0.652618
000290 d8 51 0b 3f 77 6b 5b be 45 38 90 3e 61 7f 66 3f
       0.5442176 -0.21427713 0.2816793 0.90038115
0002a0 71 33 0f 3f 66 b2 f5 be 92 b2 d6 be 8a 72 cb 3e
       0.5593787 -0.4798767 -0.41933113 0.39735824
0002b0 89 65 6b be 9a 69 22 bf 1a 46 10 bf b0 2b 51 bf
       -0.22987951 -0.63442385 -0.56356966 -0.81707287
0002c0 19 5c 51 3e 57 06 af bd 0e 54 05 bf 30 11 35 bf
       0.20445289 -0.08546131 -0.5208138 -0.7072935
0002d0 55 23 dd be 9c 6e d6 bd fa 58 1a bf 0a 4e 48 3f
       -0.4319102 -0.10470316 -0.6029202 0.7824408
0002e0 c8 71 0f 3f b7 0a be 3e 56 55 3e 3e 9c cf fa 3e
       0.5603299 0.3711755 0.1858724 0.48986518
0002f0 af c2 6a be 73 30 80 be 0d 12 70 3f a0 0e 4a 3f
       -0.22925828 -0.25036964 0.93777543 0.78928566
000300 cb ce ed 3e 8c 5a 71 bd 39 ae 3c 3f 74 4c cd 3e
       0.46446833 -0.058924243 0.7370334 0.40097392
000310 25 44 65 be d4 a2 a8 3e 75 e1 0d 3d 9b 02 93 bd
       -0.22389276 0.32936728 0.03463884 -0.07178231
000320 62 b2 77 3e da cb 1f 3b 08 95 b4 3e 57 ca 39 3f
       0.24189141 0.002438298 0.35269952 0.7257437
000330 61 4f c6 be 19 f3 73 be 66 1b 0a bf 2b 00 8f 3e
       -0.38732436 -0.23823203 -0.53948057 0.27929816
000340 91 80 28 be 70 63 cf bd c6 e8 f2 3e ad 5f 17 3f
       -0.16455294 -0.10126388 0.47443217 0.59130365
000350 1d 8e 7e be 00 32 28 bf 55 65 9f bb 56 4b ab 3c
       -0.248589 -0.65701294 -0.0048643746 0.020909946
000360 ae b6 fb 3e b9 bd bc 3e cc 89 15 3e 5d 57 c9 3e
       0.4916281 0.36863497 0.14603347 0.39324465
000370 90 60 68 be 61 14 32 be 7d 32 4a 3e 82 6f 21 bf
       -0.22693086 -0.17390586 0.19745822 -0.6306077
000380 5d f3 a8 3e 1e 99 fe be 68 2d 02 3e 4c cd 70 3e
       0.3299817 -0.49726194 0.12712634 0.23515815
000390 b2 28 27 3f a1 5b ab be d1 bb b2 3e 3e e4 2c 3f
       0.6529647 -0.33468345 0.34908918 0.6753577
0003a0 db 0b 14 3f 63 87 ad bd 01 0a 34 bf 72 20 8b 3e
       0.5783059 -0.084730886 -0.70327765 0.2717319
0003b0 5e 14 35 bf 9b ef 55 bf aa 28 07 bf 98 a2 38 bf
       -0.707342 -0.83568734 -0.52796423 -0.721231
0003c0 ac 0d e5 3e 38 3e b7 be 0b 02 5c be 2e d0 0c bd
       0.44736993 -0.35789657 -0.21485154 -0.034378223
0003d0 40 94 cf be 1a 58 c2 bd 74 16 10 be f3 d6 1c 3f
       -0.40542793 -0.0948946 -0.14071065 0.61265486
0003e0 16 20 26 3f f6 5c 24 3e 40 04 12 3f b1 7f ba 3e
       0.6489271 0.16051087 0.57037735 0.36425546
0003f0 0b ce 83 3e ba 43 ab bd 58 ad b5 3e cc ce 1a 3f
       0.25743136 -0.08362527 0.35483813 0.60471797

mlp_extractor.value_net.2.bias f4 [64]
000000 18 22 f4 3e 67 57 b1 3e 86 97 29 3e a0 99 55 3e
       0.4768226 0.34636995 0.16561708 0.20859385
000010 9a 83 f2 3d 67 af 4c be d1 87 15 be b0 25 3b 3e
       0.11841507 -0.19988786 -0.14602591 0.18276095
000020 2a a8 38 3f 79 18 01 be b8 b7 87 3d 02 da 40 be
       0.721316 -0.12606992 0.066268384 -0.18833163
000030 fc b2 86 be c6 39 4a be e1 ee 23 3d aa 62 17 3d
       -0.2630843 -0.19748601 0.040022735 0.036959328
000040 6d de 77 3e f6 d1 ee 3e 7f bc 36 3e 77 dc 35 bd
       0.24205942 0.46644562 0.17845343 -0.044399705
000050 bd 8e 90 3d 22 46 15 3f 06 23 da 3d 39 4e 09 bf
       0.07058475 0.5831014 0.106512114 -0.53634983
000060 79 81 0a 3e 98 24 a2 3d c0 67 1a 3e ac 2e 7e be
       0.13525952 0.07917136 0.1507864 -0.24822491
000070 a8 fe 68 bc 03 ce f0 bc 34 26 cf be fd 2c 0d be
       -0.014220871 -0.029395109 -0.40458834 -0.13786693
000080 76 13 4b bd e7 72 bc bd ac f7 84 3e 56 f0 8e be
       -0.049579106 -0.092016034 0.2597021 -0.27917737
000090 0a 2b 03 be af 53 91 3e d9 46 ac be 57 e4 cd bd
       -0.12809387 0.28384158 -0.33647802 -0.10053318
0000a0 cc 1d 25 3e ee 73 03 3f b6 0b bf bd 1b ac d9 3d
       0.16124648 0.5134877 -0.093284056 0.1062853
0000b0 bc 3a 05 be c5 d7 27 be 17 98 0b 3f 2c f8 49 bd
       -0.13010687 -0.16390903 0.54528946 -0.04930894
0000c0 21 d8 a5 be 66 68 27 be ff e7 c7 bc 63 34 c5 3e
       -0.32391456 -0.16348419 -0.024402617 0.3851653
0000d0 ed 2c 9f be e9 7b 60 3c 81 a9 b6 3d 7f 2f b4 3d
       -0.31088963 0.0137014175 0.08919049 0.08798122
0000e0 45 a3 cc 3c 2e 11 1a 3e 44 50 9e 3d ce 55 35 3e
       0.024980197 0.15045616 0.07730153 0.17708513
0000f0 29 4e 00 3d 34 6e 87 3d 77 72 77 3e c4 77 44 be
       0.03132454 0.066128165 0.24164759 -0.19186312

action_net.weight f4 [2, 64]
000000 a2 9a 27 3b f7 5e 07 be be 8c 1b 3e 79 76 b7 b9
       0.0025574346 -0.1321982 0.15190408 -0.0003499275
000010 ff e2 15 bb f0 20 17 be c8 39 a5 3d a0 7f 05 be
       -0.0022870896 -0.14758658 0.080676615 -0.13036966
000020 6a 0e bb 3d bd 18 8c bc 47 8e 65 3b 21 c8 26 bc
       0.09133609 -0.01710164 0.003502743 -0.01017955
000030 86 fd e0 bc b5 e0 a8 3d 10 1d 50 bb 00 c1 eb 3b
       -0.02746464 0.082459845 -0.0031755604 0.0071946383
000040 a8 db e2 bd fd e0 c0 bd 86 37 f2 bb 37 af 47 3e
       -0.11077052 -0.09417913 -0.007391873 0.19500433
000050 bf ec 4f 3b 63 5c dc 3c 26 89 b2 3b 80 0f d3 3a
       0.0031726805 0.026899522 0.0054484783 0.0016102642
000060 f4 b4 dd ba 2b 0c 3f 3e ae 82 8c 3c d4 3e 45 be
       -0.001691489 0.18656985 0.017152157 -0.19262248
000070 21 12 c3 3b 49 0f ac bd b7 9c 63 be e2 18 86 3b
       0.005953089 -0.08401353 -0.2222775 0.0040923217
000080 f1 34 9b bc 7c 8f fa 37 e2 7f 6e bc a7 34 f4 3d
       -0.018946143 2.9869138e-05 -0.014556857 0.11924105
000090 27 7d b2 3b 6b 82 5c bd 1f 2f d5 3d eb 5e c3 3b
       0.005447048 -0.053835314 0.10409378 0.005962243
0000a0 20 13 71 be d4 fa a6 3d b1 82 63 be 13 d7 c6 b9
       -0.23542452 0.081533104 -0.22217824 -0.00037925746
0000b0 7e 5a 78 3c f7 3c 44 bc f2 d8 3c 3b 23 83 fd 3c
       0.015158294 -0.011977426 0.0028815833 0.03094632
0000c0 0d 92 f4 bc e8 50 15 bd 27 7e 04 3d 32 d2 8b bb
       -0.029854799 -0.03645411 0.03234687 -0.0042670006
0000d0 9d 79 87 3d 4d 4e 26 3e af 4a ee bd 00 68 02 bc
       0.06614993 0.16240807 -0.116353385 -0.007959366
0000e0 78 9d 89 3c 01 9a b9 3b fd 7a a2 bb 45 88 30 3d
       0.01679872 0.0056641106 -0.004958509 0.043098707
0000f0 fe 54 90 3a fc e0 10 3e 7f c5 39 be 19 99 a2 3e
       0.0011011658 0.14148325 -0.18141745 0.3175743
000100 1f b4 5b b8 09 a7 8b be 63 fb 87 be 2e 3e b7 ba
       -5.238142e-05 -0.27275875 -0.2655898 -0.0013980323
000110 42 a3 a8 3b 6a 0f 38 bd 81 b0 63 3e 4c 1f 6e 3e
       0.005146415 -0.044936575 0.222353 0.23254126
000120 f2 84 bf 3c fa 71 d6 3b 7d 83 eb 3a 23 84 50 bb
       0.023378823 0.006544349 0.0017968264 -0.003181704
000130 fa df c0 bd 24 9a 71 bd cc fb 9e 3b 13 74 d7 3b
       -0.0941772 -0.05898489 0.004851794 0.0065751164
000140 f5 cd b1 bd 2d 8a e1 3d 50 67 07 3c 5b 62 7d bb
       -0.08681861 0.11012683 0.008264378 -0.003866336
000150 16 2b d6 b9 6a 7e af bc 50 cf 1d bb 38 10 8c ba
       -0.00040849362 -0.021422584 -0.0024079867 -0.0010685986
000160 09 ca ca 3a 92 87 a5 3d f6 cb 12 bc 1d 77 30 3d
       0.0015471588 0.080824986 -0.008959761 0.043082345
000170 56 63 46 3a e9 17 34 3d 76 05 c3 3d d1 92 dc 39
       0.0007567903 0.043968115 0.09522526 0.00042071057
000180 2c 5e 8c bd 0a ee c4 ba fc e6 8b 3c 48 cb 70 be
       -0.06853899 -0.0015024554 0.017077915 -0.23515046
000190 4e 19 12 ba a7 46 dd bb 12 bd 4e 3c 36 60 7f bb
       -0.00055732287 -0.006752807 0.01261832 -0.0038967258
0001a0 d8 29 76 bd a0 a1 cc bd e2 f1 e2 bd 3a 5b 3b 3a
       -0.0600985 -0.09991765 -0.11081292 0.00071470777
0001b0 98 4f ea bb 36 8e e1 3c a4 88 5d bd c4 02 03 3c
       -0.0071506016 0.027533632 -0.05408539 0.007996265
0001c0 4b 1d b0 bb 0f 71 01 bd 02 ff cd 3d af 56 7e bc
       -0.0053745857 -0.03160196 0.100584045 -0.015523597
0001d0 b9 cc 3c 3c ea 8e 95 3e 6f 0e 0d be 3e 84 91 bb
       0.011523419 0.29210597 -0.13775037 -0.0044408133
0001e0 2f d7 d1 3c 8e f5 77 b9 e0 0a 93 3b 5d bf 72 3d
       0.025615303 -0.00023647232 0.0044873804 0.05926453
0001f0 4c c6 5c bd 08 a4 d2 bc 93 b8 9b 3c 1e 4a 13 be
       -0.053900048 -0.025712982 0.01900891 -0.14383742

action_net.bias f4 [2]
000000 ae 1a 04 3d 02 d3 3b bd
       0.032252006 -0.04585553

value_net.weight f4 [1, 64]
000000 07 67 71 c0 af 56 26 40 32 ce 8c c0 df 69 81 c0
       -3.7719133 2.5990407 -4.4001703 -4.0441737
000010 b3 af 2f c0 e0 a0 1f 40 61 1b 80 40 06 bd dc c0
       -2.7450988 2.494194 4.003342 -6.898074
000020 ba ca 4d 40 ce a9 de c0 ec 6c ae 40 c6 11 21 c0
       3.2154984 -6.958228 5.450796 -2.5167098
000030 32 af 8d c0 4f 01 4e c0 62 90 06 40 af 2e 0b 40
       -4.427636 -3.2188299 2.1025624 2.1747243
000040 f2 d0 aa 40 22 2f b3 40 5a e0 13 c0 4d 28 e8 c0
       5.338006 5.5995035 -2.3105683 -7.2549195
000050 32 40 c2 c0 33 e6 98 c0 42 4f 31 40 ad 02 cd c0
       -6.0703363 -4.7781005 2.7704625 -6.4065766
000060 8b d7 8b c0 71 7a 23 40 79 e7 7a c0 b2 d3 43 c0
       -4.3700614 2.5543482 -3.920378 -3.0597959
000070 ad 5f a0 c0 8f c1 7e c0 24 08 6f 40 d7 e7 0a c0
       -5.011679 -3.9805639 3.7348719 -2.1704004
000080 0b 0b 6f 40 9a e4 0f c0 6d fc 35 40 af fc ab c0
       3.735049 -2.2483277 2.8435318 -5.374595
000090 25 46 81 40 ce 37 e9 bf 63 cc 85 40 08 6a 47 c0
       4.0398126 -1.8220155 4.1811996 -3.1158466
0000a0 b0 20 a5 40 3c ee ad 40 c5 da 85 40 77 ff d9 40
       5.16024 5.4353313 4.1829553 6.8124347
0000b0 23 3c b7 c0 d1 4d 89 c0 c9 e6 96 c0 29 5a ed 3f
       -5.726091 -4.290749 -4.715672 1.854314
0000c0 35 a4 43 40 ac 0a 80 40 91 d3 45 c0 df 02 93 40
       3.0568974 4.0013027 -3.091038 4.5941005
0000d0 ea 90 b6 c0 3b dc ea bf 3d 82 ce c0 c1 b2 15 40
       -5.7051897 -1.8348459 -6.453398 2.3390353
0000e0 77 64 0c c0 b7 46 d9 40 cf e6 fd 40 7b 94 6d c0
       -2.193632 6.789882 7.934425 -3.7121875
0000f0 1d 1a 9f c0 6f 7a 40 40 9f b3 a1 40 6e 7b 5b 40
       -4.9719377 3.0074728 5.0531764 3.4294086
