logs_smallNet/masked_ppo_split_net/crossing_planes_multiHead_1/best_model/policy.pth (torch, 82730 bytes, 17 tensors)

log_std f4 [4]
0	0x00000000	0.0
1	0x00000000	0.0
2	0x00000000	0.0
3	0xc00aec66	-2.1706786

mlp_extractor.value_net.0.weight f4 [64, 96]
0	0xbe9a77e0	-0.30169582
1	0xbc99f341	-0.01879275
2	0xbce58b56	-0.028020542
3	0x3f012df9	0.50460774
4	0x3dcb71c2	0.09933807
5	0xbf01e9b7	-0.50747246
6	0xbd452be3	-0.048137557
7	0xbe779ee8	-0.24181712
8	0xbd46416c	-0.048402235
9	0x3caa32f7	0.020776255
10	0xbcb67c7c	-0.022276156
11	0xbe474ebd	-0.1946363
12	0xbcd9788a	-0.026546735
13	0xbd680e42	-0.056654222
14	0x3d95e4c9	0.07319028
15	0xbdd41ba9	-0.10356838
16	0xbe87f363	-0.26552877
17	0x3d24a13c	0.040192828
18	0x3dac5a9b	0.08415719
19	0xbe894050	-0.2680688
20	0xbe8ff1e0	-0.28114223
21	0x3b7f6c77	0.0038974562
22	0xbc3d3479	-0.011548155
23	0xbe09f34a	-0.13471714
24	0x3ecfd2bd	0.40590468
25	0x3d693a26	0.05694022
26	0xbe9823e8	-0.29714894
27	0x3e62c4b8	0.22145355
28	0xbb9b34dc	-0.004736526
29	0xbe3205f2	-0.1738508
30	0xbc861650	-0.016368061
31	0xbf10e9c4	-0.566067
32	0xbc6edde8	-0.014579274
33	0xbdc42b2c	-0.09578547
34	0xbdaf6014	-0.08563247
35	0x3d8c2aa3	0.0684407
36	0xbdb82f6b	-0.08993419
37	0x3d2c111c	0.042008504
38	0x3e425856	0.1897901
39	0x3db71349	0.08939225
40	0x3bdfe9de	0.006833299
41	0xbf176ccf	-0.59150404
42	0x3d496ba7	0.04917493
43	0xbcf532f9	-0.029931532
44	0x3c706c98	0.014674328
45	0x3ae2b8a2	0.0017297457
46	0xbe8309e8	-0.25593495
47	0xbe2ae1d1	-0.16687705
48	0xbd0ef02a	-0.034897007
49	0x3c4438a2	0.011976393
50	0xbe1a86ed	-0.15090533
51	0xbd3ae895	-0.045631964
52	0x3cd8eb32	0.026479337
53	0xbbcdb35f	-0.006277486
54	0x3cfbbcdf	0.03072971
55	0x3e41ed64	0.18938214
56	0xbe46d190	-0.19415879
57	0xbdd3a476	-0.10334103
58	0x3ed1aaef	0.40950724
59	0x3ea8c20c	0.32960546
60	0xbe5dc69f	-0.21657799
61	0xbc7b3ec8	-0.015334792
62	0x3cebd25e	0.028786834
63	0xbd73c6bb	-0.059515696
64	0xbe2d602d	-0.1693122
65	0x3cfbf202	0.030755047
66	0x3e2c18c0	0.16806316
67	0x3d569043	0.052383672
68	0x3e1dea61	0.1542144
69	0xbe6ed1bf	-0.233222
70	0xbd89b1f7	-0.06723397
71	0x3f4a80e0	0.791029
72	0x3f73ff0a	0.95311034
73	0xbd48e870	-0.049049795
74	0x3e82d77e	0.25555032
75	0xbde55698	-0.11198157
76	0x3c71ea79	0.014765375
77	0x3eab6df0	0.33482313
78	0xbeb39664	-0.35075676
79	0xbf0036c2	-0.50083554
80	0x3e52a76e	0.20571682
81	0x3dea8fd8	0.11453217
82	0x3f1788b3	0.5919296
83	0xbe7f9714	-0.24959975
84	0x3e13821a	0.14405099
85	0x3eb0e41b	0.3454903
86	0xbe9d1b5b	-0.30684933
87	0x3ec079d4	0.37592947
88	0x3f005fee	0.5014638
89	0xbe6206d3	-0.22072916
90	0x3c5759f2	0.013144003
91	0x3ef37e06	0.47557086
92	0x3f07eccb	0.5309569
93	0xbf26f6d7	-0.652204
94	0x3e90d9f6	0.2829129
95	0x3e3d494b	0.1848499
96	0xbdec66fb	-0.115430795
97	0xbdfd66f9	-0.12373156
98	0xbb0b27b3	-0.002123338
99	0x3de288f1	0.11061276
100	0x3e56aa13	0.20963316
101	0x3eca0c02	0.39462286
102	0x3eb02613	0.34404048
103	0x3ee96769	0.45586708
104	0xbdcebbe1	-0.10094429
105	0x3e6324a5	0.22181948
106	0x3d89a0e3	0.0672014
107	0x3eec8e1c	0.4620217
108	0xbe97d8a9	-0.29657486
109	0x3e668f10	0.22515512
110	0x3d820907	0.06349378
111	0x3e2a31b6	0.16620526
112	0x3e387544	0.18013483
113	0xbc171eff	-0.009223699
114	0xbe1cc91f	-0.15311097
115	0x3d837053	0.064179085
116	0xbd8c9141	-0.068636425
117	0xbe5727f6	-0.21011338
118	0x3eb671e3	0.35633764
119	0x3d23dcd8	0.040005535
120	0x3e7a2539	0.24428262
121	0xbe5cf8fc	-0.21579355
122	0xbe32a95f	-0.17447422
123	0xbd837f18	-0.064207256
124	0xbe0ba480	-0.1363697
125	0x3ccaad0f	0.024740724
126	0xbd321c19	-0.043483827
127	0xbdcfcfbb	-0.10147043
128	0x3d5a7ec5	0.053343553
129	0x3e423f25	0.189694
130	0x3e9f309f	0.31091782
131	0xbd99fd93	-0.075190686
132	0x3deebecf	0.116574876
133	0xbd1b4277	-0.037905183
134	0xbe3026f9	-0.17202367
135	0xbe42ba75	-0.1901644
136	0xbe2b7d15	-0.16746934
137	0xbd406d1c	-0.046979055
138	0xbdcc6546	-0.09980254
139	0x3c7f13db	0.015568699
140	0xbcbf48bc	-0.023350112
141	0xbd492884	-0.049110904
142	0x3f36ead8	0.71452093
143	0x3f09b82f	0.53796667
144	0x3ed4ffd6	0.41601437
145	0x3e6f7c12	0.23387173
146	0xbdcfec3f	-0.10152482
147	0xbb3301b5	-0.002731425
148	0xbd8ea956	-0.06965892
149	0xbdb6b625	-0.0892146
150	0xbd19ed54	-0.03757985
151	0xbe8c124b	-0.27357706
152	0x3b2a4216	0.0025979332
153	0xbe7539a9	-0.23947777
154	0x3e4d7744	0.20065027
155	0x3e241600	0.16024017
156	0x3d02e523	0.031956803
157	0x3dfc13d2	0.12308468
158	0xbef6b07e	-0.48181528
159	0xbd8f2c54	-0.06990877
160	0xbd9817ae	-0.074263915
161	0x3d4f708c	0.050644442
162	0xbeb106c7	-0.34575483
163	0xbe6163a0	-0.2201066
164	0x3ecb5439	0.39712694
165	0x3ce6a026	0.028152537
166	0xbe33a6c2	-0.17544082
167	0x3e588a4b	0.21146505
168	0xbf35a452	-0.7095386
169	0xbe1b2a9a	-0.1515297
170	0xbdf9468e	-0.1217166
171	0xbe08b4c7	-0.13350211
172	0x3c7e9391	0.015538112
173	0xbe037ded	-0.12841006
174	0x3dfecca7	0.12441378
175	0xbe5a4857	-0.21316658
176	0x3dd94055	0.106079735
177	0xbd29a37b	-0.041415673
178	0xbe963a6c	-0.29341447
179	0x3d3aaf62	0.045577414
180	0x3dadecd5	0.08492438
181	0xbe2fbbcf	-0.17161487
182	0x3e2ae6e2	0.16689637
183	0xbe9200d6	-0.28516263
184	0x3e9823c6	0.29714793
185	0x3b65b30a	0.0035049343
186	0xbdabf317	-0.08395975
187	0x3bb0ee74	0.0053995196
188	0xbdaedc63	-0.08538129
189	0xbe2509e1	-0.1611705
190	0x3e0a07f3	0.13479595
191	0xbe19865d	-0.14992662
192	0x3d915ec9	0.07098157
193	0xbef4a3a8	-0.4778111
194	0xbf04e14c	-0.51906276
195	0x3e905c7a	0.28195554
196	0x3da7dd9d	0.08196566
197	0xbce0c1a1	-0.02743608
198	0xbe62528c	-0.22101802
199	0x3b11b925	0.00222356
200	0x3e030b5f	0.12797306
201	0xbe66b98c	-0.22531718
202	0x3ca03df4	0.019560792
203	0x3e107019	0.14105262
204	0xbe253b2e	-0.16135857
205	0x3d5d2dab	0.05399863
206	0xbe2bfb3e	-0.1679506
207	0xbe7ea31d	-0.2486691
208	0xbe9d4fa9	-0.30724838
209	0xbd94b6c7	-0.072614245
210	0x3e0a31a8	0.13495505
211	0x3c5494aa	0.012974897
212	0xbe827f20	-0.25487614
213	0xbf1079e9	-0.5643602
214	0x3e7f2f05	0.2492028
215	0x3e68aa47	0.22721206
216	0x3ea4491d	0.3208703
217	0x3f03aac2	0.5143243
218	0xbe434533	-0.19069366
219	0xbee09b6a	-0.43868572
220	0x3d900534	0.070322424
221	0x3e9a5a9e	0.3014726
222	0xbeb29493	-0.34878978
223	0xbb3d8edc	-0.0028924262
224	0xbf01b366	-0.50664365
225	0x3e31479b	0.17312472
226	0x3dbc159d	0.0918381
227	0xbe841026	-0.2579357
228	0x3db15bef	0.08660113
229	0x3e7922fd	0.24329753
230	0x3e67de6f	0.22643445
231	0xbf136819	-0.57580715
232	0x3e13aae5	0.1442066
233	0xbe30b218	-0.17255437
234	0x3d1434ec	0.036183283
235	0x3cf1f950	0.029537827
236	0x3df0cd1b	0.11757871
237	0x3d480e13	0.048841547
238	0xbe5090c0	-0.20367718
239	0x3dd0fbb7	0.10204261
240	0x3cd198b7	0.025585515
241	0x3d200b2f	0.039073166
242	0x3e002a95	0.12516244
243	0x3d0c824a	0.03430394
244	0xbd159326	-0.036517285
245	0x3d90c238	0.07068294
246	0x3d1d061a	0.038335897
247	0x3d77bdc0	0.060483694
248	0x3f07ce1a	0.5304886
249	0x3eb5871f	0.35454652
250	0x3f3d2577	0.7388529
251	0xbec9204e	-0.3928246
252	0xbdbfd5bb	-0.09366938
253	0x3d8c9023	0.068634294
254	0xbdc0ae61	-0.0940826
255	0x3f63292f	0.88734716

mlp_extractor.value_net.0.bias f4 [64]
0	0xbf9a1f92	-1.2040884
1	0xbdc86657	-0.09785145
2	0xbf364976	-0.7120584
3	0x3fd33f89	1.6503764
4	0xc00043cb	-2.0041378
5	0xbe70e52e	-0.23524925
6	0x3f8b6f57	1.0893353
7	0xbfcf4a86	-1.6194618
8	0xbf4535e8	-0.7703538
9	0xbef94d93	-0.48691997
10	0x3f9096aa	1.1295979
11	0xbfdb6d4d	-1.7142731
12	0xbf6798ff	-0.9046783
13	0x3f970ebc	1.1801372
14	0x3e05f3db	0.13081305
15	0xbf15e2f8	-0.5854945
16	0xbdc4fe1f	-0.09618782
17	0x3e82d6f1	0.25554612
18	0xbfcc3377	-1.5953206
19	0x3f9ce486	1.225724
20	0x3f81d063	1.014172
21	0xbf76a471	-0.9634467
22	0xbfe18947	-1.7620019
23	0xbf3d8928	-0.7403741
24	0x3f797428	0.97442865
25	0xbfce9f0a	-1.6142285
26	0x3fcd4d96	1.6039302
27	0xbf0dbe71	-0.55368716
28	0x3e806e22	0.25084025
29	0xbf656c5f	-0.89618486
30	0x3fb62a37	1.4231633
31	0x3fb3b89d	1.4040715
32	0x3f9cd621	1.2252847
33	0x3e0c6a14	0.1371234
34	0xbf567137	-0.837665
35	0x400c1436	2.1887336
36	0x3e8f0a6d	0.27937642
37	0x3f7f5313	0.99736136
38	0x3d794801	0.060859684
39	0x3f6705b5	0.90243083
40	0xbfce29e2	-1.6106532
41	0x3efdfbc9	0.4960616
42	0x3f9cd845	1.22535
43	0x3f8fbc3d	1.1229321
44	0x3f58216f	0.84426016
45	0x3f91fa21	1.1404458
46	0xbfc12a40	-1.5091019
47	0x3fceb736	1.6149662
48	0x3fcfd22c	1.6236014
49	0x40034bc5	2.0514996
50	0x400d3917	2.2066095
51	0xbf8351bf	-1.0259322
52	0xbe85b74e	-0.26116413
53	0x3e685bf8	0.22691333
54	0xbe34b1c2	-0.17645934
55	0xbdd3acd5	-0.103356995
56	0xbfc52eda	-1.5404923
57	0x3fc0eed8	1.5072889
58	0x3f9d5dc2	1.2294238
59	0x40096759	2.1469328
60	0xbf0a3b83	-0.5399706
61	0x3f35dc9c	0.7103975
62	0xbed804f6	-0.42191285
63	0xbf120401	-0.5703736

mlp_extractor.value_net.2.weight f4 [64, 64]
0	0xbe2a95d3	-0.16658716
1	0xbddeb0c7	-0.10873561
2	0x3e4a8d96	0.19780573
3	0xbe89901c	-0.2686776
4	0xbc6d0b96	-0.014468094
5	0x3f0edc27	0.55804676
6	0xbeb9a15c	-0.3625592
7	0x3e8afa49	0.27144077
8	0x3d1ac24e	0.03778296
9	0xbf2482f8	-0.6426234
10	0xbe7e697a	-0.24844924
11	0x3efddfd9	0.49584845
12	0xbdaec0fd	-0.08532903
13	0x3d1f32eb	0.03886692
14	0x3c98514e	0.018593457
15	0xbe977637	-0.29582378
16	0xbe80f4e1	-0.25186828
17	0x3f13d276	0.5774301
18	0x3e0fcaf2	0.14042261
19	0xbca223fb	-0.019792547
20	0x3e832f9a	0.25622255
21	0x3e152d37	0.1456803
22	0xbd656677	-0.05600592
23	0x3d2225ec	0.039586946
24	0xbde6ef30	-0.1127609
25	0x3dae84c0	0.08521414
26	0x3edf7082	0.43640524
27	0xbea2320a	-0.31678802
28	0xbc8c0997	-0.017094417
29	0x3d9338ff	0.071886055
30	0xbd884a5c	-0.06654808
31	0xbeeb4aef	-0.45955607
32	0xbf16a762	-0.58849156
33	0x3f4a11a4	0.7893317
34	0xbdf7eafb	-0.12105366
35	0xbec9e0da	-0.3942936
36	0xbd142806	-0.03617098
37	0x3e1ea27a	0.15491667
38	0x3ec133fb	0.3773497
39	0xbda82094	-0.08209339
40	0x3e82c1c5	0.2553846
41	0xbe4c6092	-0.19958714
42	0x3dd14211	0.10217679
43	0x3e55d447	0.20881759
44	0x3c772b55	0.015086015
45	0xbdd23535	-0.10264055
46	0xbeb1d161	-0.34730056
47	0x3e63e9dd	0.2225718
48	0x3eaf048f	0.34183165
49	0x3dd21f68	0.102598965
50	0xbbfcfa4c	-0.0077202674
51	0x3e88d4fa	0.26724988
52	0x3e38b5ca	0.18038097
53	0x3e945e83	0.28978357
54	0xbed7ad85	-0.42124572
55	0xbedcad5a	-0.43101007
56	0x3e14f546	0.1454669
57	0xbdd7d421	-0.10538507
58	0x3e9fccae	0.31210846
59	0xbb904f12	-0.004403957
60	0x3cd74695	0.026278773
61	0x3e0d2a68	0.13785708
62	0xbe03799a	-0.12839356
63	0xbe2efbcb	-0.17088239
64	0xbe09caba	-0.1345624
65	0xbf2c94b0	-0.6741438
66	0x3e40c1b9	0.188239
67	0x3f297552	0.6619464
68	0xbe97d2a4	-0.29652894
69	0xbf202586	-0.62557256
70	0xbdc0e5d1	-0.09418834
71	0xbe8c7b15	-0.27437654
72	0xbdd9f506	-0.10642438
73	0xbe81f3db	-0.2538136
74	0x3d25e5b0	0.04050225
75	0xbe8b9f98	-0.27270198
76	0xbe2c48c6	-0.16824636
77	0xbc8de0c2	-0.017319087
78	0x3e8db976	0.27680558
79	0xbc3586a8	-0.011079468
80	0xbe93face	-0.28902286
81	0x3d83d65b	0.064373694
82	0xbe9a8801	-0.30181888
83	0x3e9214eb	0.28531584
84	0xbd8c5037	-0.06851237
85	0x3dbb65cf	0.09150278
86	0xbe38867c	-0.18020052
87	0x3e7e3de6	0.248283
88	0x3db80785	0.08985809
89	0xbeb8f5a7	-0.36124918
90	0xbe3900ce	-0.18066713
91	0xbd8aac9d	-0.067712046
92	0x3eca2b13	0.39485988
93	0x3e6b66b9	0.22988404
94	0x3e46031d	0.19337125
95	0x3e7c6871	0.24649216
96	0x3fae3161	1.3608819
97	0xbe943fdd	-0.28954974
98	0x3f1a34a6	0.60236585
99	0xbe1b33c2	-0.15156463
100	0xbe228dbc	-0.1587438
101	0xbaabf5e7	-0.0013119549
102	0xbe7e0e1b	-0.24810068
103	0xbe7a17f7	-0.24423204
104	0xbeaa59d3	-0.33271655
105	0x3e4c74e0	0.1996646
106	0x3e47c33b	0.19508068
107	0x3e9701e3	0.29493627
108	0x3e0d6d48	0.13811219
109	0xbe92b912	-0.28656822
110	0xbf05f2a5	-0.5232337
111	0x3e3c1651	0.18367888
112	0x3e2e6b1b	0.17033045
113	0x3f34b278	0.7058482
114	0x3e945336	0.28969735
115	0xbebf99fd	-0.3742217
116	0xbed5ff7b	-0.4179648
117	0xbe879d23	-0.26487073
118	0x3d33f937	0.04393884
119	0x3e2f145a	0.17097607
120	0xbb776667	-0.0037750246
121	0xbdbd69c4	-0.09248689
122	0x3edb7c46	0.4286825
123	0x3dd5a2df	0.10431456
124	0xbe979a99	-0.29610136
125	0x3ee08263	0.43849477
126	0x3ec6b6f3	0.38811454
127	0xbe1696c5	-0.14705952
128	0x3e9493bd	0.29018965
129	0x3e185028	0.14874327
130	0xbdb84852	-0.08998169
131	0xbf45d376	-0.7727579
132	0x3f09ef91	0.53881174
133	0x3e731ac8	0.23740685
134	0x3e8b9bff	0.27267453
135	0x3f25470c	0.64561534
136	0x3e98e244	0.29860127
137	0xbed89c46	-0.42306727
138	0xbd77a83b	-0.06046317
139	0xbe825ebd	-0.25462905
140	0xbdead5b6	-0.114665434
141	0xbe2cc04b	-0.16870229
142	0x3b68f003	0.0035543449
143	0x3f1768c0	0.5914421
144	0x3ed439fb	0.41450486
145	0x3e1ad2b3	0.15119438
146	0x3e135057	0.14386116
147	0xbf80190a	-1.0007641
148	0x3e9935c2	0.29923826
149	0x3fabf742	1.3434832
150	0xbda84a17	-0.082172565
151	0x3f1c9c4a	0.6117598
152	0xbdd5bf95	-0.10436932
153	0x3ecee7a6	0.4041111
154	0xbe777a89	-0.24167837
155	0xbcea5ffc	-0.028610222
156	0xbf0ca581	-0.5494004
157	0x3edfff4d	0.43749467
158	0xbe441a24	-0.19150597
159	0x3d146f57	0.036238994
160	0xbf2c6b87	-0.67351574
161	0xbdfd6e07	-0.12374502
162	0x3f772bee	0.96551406
163	0x3c2132f8	0.009838812
164	0x3e4493f6	0.19197068
165	0xbe09659a	-0.13417664
166	0x3e90b034	0.28259432
167	0x3e676c07	0.22599803
168	0x3f136232	0.5757171
169	0xbef8951d	-0.48551264
170	0x3ec90151	0.39258817
171	0xbd8962fd	-0.06708334
172	0xbe8fb6be	-0.2806911
173	0x3e3717d9	0.17880191
174	0x3e5eab53	0.21745043
175	0xbd69d186	-0.057084583
176	0x3dfaa7f7	0.12239068
177	0xbcf48480	-0.029848337
178	0x3db3bdcb	0.087764345
179	0x3e87b6cc	0.2650665
180	0x3e425055	0.18975957
181	0xbf021175	-0.5080789
182	0x3dedf1a4	0.11618355
183	0xbe7cb986	-0.24680147
184	0x3ebdf07f	0.37097546
185	0xbea84ec7	-0.32872602
186	0xbda6f0a6	-0.08151369
187	0x3de3ea3c	0.11128661
188	0xbe0aebc7	-0.13566504
189	0x3ea499b4	0.32148516
190	0x3da2f2f2	0.079564944
191	0x3e5004d1	0.20314337
192	0xbdeab79d	-0.11460803
193	0x3e106410	0.14100671
194	0xbf0c3f86	-0.5478443
195	0x3e8662f1	0.2624736
196	0xbec951bd	-0.39320174
197	0x3d98b719	0.07456798
198	0x3f067cf3	0.5253441
199	0xbeb4c205	-0.35304275
200	0xbdd420be	-0.103578076
201	0xbe08a1d1	-0.13342978
202	0x3c988961	0.018620195
203	0x3cd89a03	0.026440626
204	0xbe39df5f	-0.18151616
205	0xbec32388	-0.38113046
206	0xbeb1cb7f	-0.34725568
207	0xbe98e94b	-0.29865488
208	0x3eb320d5	0.34985986
209	0x3db2b51b	0.087259494
210	0xbe205c41	-0.15660192
211	0x3e9d42c2	0.30714995
212	0xbee777c8	-0.45208573
213	0xbe8c594c	-0.27411878
214	0x3e18a6d7	0.14907394
215	0x3d87cc03	0.06630709
216	0x3ddb04df	0.106942885
217	0xbe919b99	-0.28439024
218	0x3e091ad4	0.1338914
219	0x3e411ea3	0.18859343
220	0xbcb0fb79	-0.021604287
221	0xbd862c88	-0.065514624
222	0xbe50fd06	-0.20409021
223	0x3e802d70	0.25034666
224	0x3f3cef48	0.73802614
225	0xbe7495a9	-0.23885216
226	0x3d8759d6	0.06608932
227	0x3eeeaf87	0.46618292
228	0x3e5f57b6	0.21810803
229	0x3f4bdc30	0.79632854
230	0x3ee5cb1f	0.44881532
231	0x3de2d6d4	0.110761315
232	0xbf721deb	-0.945769
233	0xbe87adea	-0.26499873
234	0xbe2905c1	-0.16506101
235	0x3d19080a	0.037361182
236	0x3d0681e2	0.03283871
237	0xbe3a0aa7	-0.18168126
238	0xbf32aa02	-0.6979066
239	0x3e81f9cf	0.253859
240	0x3ecdf8a5	0.40228763
241	0x3eac5328	0.33657193
242	0x3f12384e	0.57117164
243	0xbddb89ff	-0.1071968
244	0x3eb69951	0.35663846
245	0xbd8cc819	-0.06874103
246	0x3e9ed74e	0.3102364
247	0xbec6178f	-0.3868985
248	0xbe1bf9e5	-0.15232046
249	0x3ecc5173	0.3990589
250	0x3ecac3a7	0.39602396
251	0x3f5a9804	0.8538821
252	0xbd550afa	-0.05201242
253	0xbdb23922	-0.087023035
254	0x3e91f984	0.28510678
255	0xbe1c3d3a	-0.15257731

mlp_extractor.value_net.2.bias f4 [64]
0	0xbc984412	-0.018587146
1	0x3f7eeef6	0.99583375
2	0xbed3b755	-0.4135081
3	0x3f26ba31	0.65127856
4	0x3f658807	0.89660686
5	0xbec82043	-0.39087114
6	0x3db825a3	0.08991554
7	0x3e79a30c	0.24378604
8	0x3e976f8d	0.29577294
9	0x3e57f5e9	0.21089901
10	0xbd4256ae	-0.047445945
11	0x3f27dad2	0.6556827
12	0x3f0cd61b	0.550142
13	0x3dd251dd	0.102695204
14	0xbf1a32b5	-0.6023362
15	0xbf7fe1f6	-0.99954164
16	0x3ec47706	0.38372058
17	0x3efeba3f	0.4975147
18	0xbf1bced2	-0.6086246
19	0x3e78d6d6	0.24300703
20	0x3f27a48f	0.6548547
21	0x3f82b5fd	1.0211788
22	0x3ee3a315	0.4446036
23	0xbf872969	-1.0559512
24	0x3e124e97	0.14287792
25	0xbeccb65b	-0.39982876
26	0xbd7a3235	-0.061083037
27	0xbf05199e	-0.51992214
28	0x3eb72d4b	0.35776743
29	0xbeaf2cac	-0.3421377
30	0x3edf550f	0.43619582
31	0xbec41a33	-0.38301238
32	0xbd175ea8	-0.036955506
33	0xbf628d8a	-0.8849722
34	0x3efd4d39	0.4947298
35	0xbefb3dc0	-0.4907055
36	0x3f301a9c	0.687906
37	0x3eb903ae	0.3613562
38	0xbe936026	-0.28784293
39	0x3f6761fc	0.9038389
40	0x3ef9eada	0.4881199
41	0x3f2b6fc6	0.6696743
42	0x3f2a4c68	0.66522837
43	0x3f2dc464	0.67877793
44	0xbeac6fcc	-0.33679044
45	0xbdb74f6d	-0.08950696
46	0x3e4d988e	0.20077726
47	0xbefc261e	-0.4924783
48	0x3f100ea1	0.5627232
49	0x3ed69e32	0.41917568
50	0xbe757adb	-0.23972647
51	0xbe910bcf	-0.28329322
52	0x3f4253ea	0.7590929
53	0xbe48d81b	-0.19613688
54	0x3efbb0a1	0.49158195
55	0xbe8a0db1	-0.2696357
56	0x3ebff4f5	0.37491575
57	0x3ef57d1a	0.47947007
58	0xbeb26245	-0.348406
59	0xbf1eb2ba	-0.61991465
60	0xbe780826	-0.24221858
61	0x3e66c979	0.22537793
62	0x3f7c4939	0.9854923
63	0x3d50e9dc	0.051004276

action_net.action_nets.0.0.weight f4 [32, 96]
0	0x3d93c562	0.07215382
1	0x3df6874d	0.12037525
2	0x3e42c0de	0.19018885
3	0x3fca856a	1.5821965
4	0xbeaa6dc2	-0.33286864
5	0x3e09fe0b	0.13475816
6	0xbd8b11e7	-0.06790524
7	0x3dcdfa6e	0.10057531
8	0xbf0000fe	-0.50001514
9	0xbdc37f53	-0.095457695
10	0xbdf9ad46	-0.121912524
11	0x3db95fe4	0.09051493
12	0xbe37a5b7	-0.17934309
13	0x3d2e280d	0.042518664
14	0x3e1c0348	0.15235627
15	0xbdfcd0eb	-0.123445354
16	0xbc0047a4	-0.00782958
17	0x3e1dd4a6	0.1541315
18	0xbe84b2fe	-0.2591781
19	0x3d86dc62	0.065850034
20	0x3d694e23	0.056959283
21	0x3ea1a7ec	0.31573427
22	0x3de5bc5f	0.112175696
23	0xbdf086bf	-0.11744451
24	0xbec30157	-0.3808696
25	0xbe29d3c6	-0.16584691
26	0x3dc53554	0.09629312
27	0x3ec4d606	0.38444537
28	0xbed2c3d3	-0.41165027
29	0xbe26e227	-0.16297208
30	0xbe0ae713	-0.1356471
31	0x3e9b6b70	0.30355406
32	0xbe114d15	-0.1418956
33	0xbec50307	-0.38478872
34	0xbe1938e2	-0.14963105
35	0x3a9bb608	0.0011879811
36	0x3edf9913	0.43671474
37	0xbed7becb	-0.4213775
38	0xbe779759	-0.24178828
39	0xbcaf1318	-0.02137141
40	0xbd02de1c	-0.0319501
41	0xbf1f8ce1	-0.6232434
42	0x3e9022e8	0.2815163
43	0xbea31c94	-0.3185774
44	0x3f52c09e	0.8232516
45	0xbed81de8	-0.42210317
46	0x3d3cd586	0.04610207
47	0x3e1c50f9	0.15265264
48	0x3e3bc000	0.18334961
49	0xbe8ca23b	-0.27467522
50	0xbea8ba15	-0.3295447
51	0xbdd4ff40	-0.104002476
52	0x3dc02055	0.09381167
53	0xbda6fa76	-0.081532404
54	0xbe676c45	-0.22599895
55	0x3e9ffddf	0.31248376
56	0xbec2cfba	-0.38049108
57	0x3e332c55	0.1749738
58	0xbeba18fc	-0.36347187
59	0xbe3ae09a	-0.18249741
60	0xbd3992d0	-0.045306027
61	0xbefde680	-0.4958992
62	0xbeea91c1	-0.45814326
63	0xbe726f40	-0.23675251
64	0x3cddaa99	0.027058886
65	0xbe8326f2	-0.2561565
66	0xbd6608aa	-0.056160606
67	0x3c4e367f	0.012586235
68	0xbdfd16d9	-0.123578735
69	0x3eafff02	0.34374243
70	0x3da23725	0.07920674
71	0xbee11f08	-0.43968987
72	0xbe3a9acc	-0.18223113
73	0x3e4c2307	0.19935237
74	0xbdd10969	-0.10206873
75	0xbcaddcac	-0.021223389
76	0xbd50af7c	-0.050948605
77	0xbef768b4	-0.4832207
78	0x3d11da23	0.035608422
79	0x3ea0e665	0.31425777
80	0x3dc4d6d2	0.09611286
81	0xbdfe04e7	-0.12403279
82	0xbeeab660	-0.45842266
83	0x3c0f1d39	0.008734995
84	0x3dbc8ce0	0.09206557
85	0x3d5653c7	0.05232599
86	0xbeda5abd	-0.42647353
87	0xbeaec5b5	-0.34135213
88	0x3df443b0	0.11926973
89	0x3d1cc9f4	0.038278535
90	0x3e0bcc4e	0.13652155
91	0x3cca0b6f	0.024663655
92	0x3e07a754	0.13247424
93	0x3eb3a201	0.35084537
94	0xbdb3811f	-0.08764862
95	0xbe71ed4d	-0.2362568
96	0xbd20dfa6	-0.039275788
97	0x3e9d3f72	0.30712467
98	0xbde82f88	-0.11337191
99	0x3f6f5840	0.93494034
100	0xbe631d91	-0.22179247
101	0xbd1e1a65	-0.03859939
102	0xbc1b77c9	-0.009489008
103	0x3ddc05bf	0.107432835
104	0xbdbc6db7	-0.09200614
105	0x3dac7c98	0.08422202
106	0xbdf4a4e4	-0.11945513
107	0xbe5b1f5e	-0.21398684
108	0xbe4c5859	-0.19955577
109	0xbec12280	-0.37721634
110	0xbeb5310a	-0.35388976
111	0xbd985c36	-0.07439463
112	0xbda8ab30	-0.082357764
113	0x3ea97f78	0.33105063
114	0x3eedf8e3	0.46478948
115	0xbf09da28	-0.53848505
116	0xbcb675bf	-0.022272943
117	0xbe62567e	-0.22103307
118	0xbeec2e00	-0.46128845
119	0xbe8ebba8	-0.27877545
120	0xbe52ffa2	-0.20605329
121	0xbdbb6210	-0.09149563
122	0x3ebf4595	0.37357774
123	0x3d2978ff	0.041375156
124	0xbd8bbe77	-0.06823438
125	0xbeb51889	-0.3537028
126	0xbe63bda4	-0.22240311
127	0x3e008202	0.12549594
128	0xbbbb7cc7	-0.0057216617
129	0xbe7576d0	-0.23971105
130	0xbeaa7394	-0.33291304
131	0xbc27eb01	-0.0102489
132	0x3d9a1de4	0.075252324
133	0xbef69bfb	-0.4816588
134	0xbe668ac0	-0.22513866
135	0xbe575338	-0.21027839
136	0x3e5b4616	0.21413454
137	0xbe219d04	-0.15782553
138	0x3c02f1db	0.007992233
139	0x3d793598	0.060842127
140	0x3c3021e2	0.010750266
141	0x3ebe483c	0.37164485
142	0x3e0222d2	0.12708595
143	0x3e880c94	0.26572096
144	0x3eb994d1	0.3624635
145	0xb88a8c06	-6.606434e-05
146	0xbded3bdf	-0.11583685
147	0xbeb87691	-0.3602796
148	0x3e36cbb7	0.17851149
149	0x3cc02170	0.023453444
150	0x3c9aed6f	0.018912045
151	0x3f2d8112	0.6777507
152	0xbe56acd9	-0.20964374
153	0xbe40cc58	-0.18827951
154	0x3ed43116	0.414437
155	0xbde7d8f3	-0.11320677
156	0x3da5c482	0.080941215
157	0xbe745b8f	-0.23863052
158	0x3ebb2386	0.3655054
159	0xbb1eed4c	-0.0024250327
160	0xbf009be3	-0.50237864
161	0x3df31814	0.11869827
162	0xbd154a6c	-0.036447927
163	0xbd5646ad	-0.052313495
164	0x3ec53d5f	0.38523385
165	0xbdef4302	-0.116827026
166	0x3e592347	0.21204863
167	0xbed20331	-0.4101806
168	0xbef8116d	-0.48450795
169	0xbe915525	-0.28385273
170	0xbe3fdd72	-0.18736818
171	0x3dceda15	0.101001896
172	0xbe6d8360	-0.23194647
173	0xbe952b61	-0.29134658
174	0x3c1097d8	0.008825265
175	0x3ebd24db	0.3694218
176	0x3d985e7f	0.07439899
177	0xbe164f2a	-0.14678636
178	0xbe96f29d	-0.29481974
179	0xbdb0975c	-0.086226195
180	0xbe4fb533	-0.20283966
181	0xbe089471	-0.13337876
182	0xbeb96ad2	-0.3621431
183	0x3f1f9ef8	0.6235194
184	0xbc94f4de	-0.018183168
185	0x3ecf3fd9	0.404784
186	0x3e6cd52e	0.23128197
187	0x3ebead32	0.37241513
188	0x3ddad34f	0.10684835
189	0xbe5ac5ea	-0.2136456
190	0x3ec95998	0.39326167
191	0x3f1f7a82	0.6229631
192	0xbe75abfa	-0.23991385
193	0xbe0476a2	-0.1293588
194	0xbd702d79	-0.058637116
195	0x3fa7fdf9	1.3124381
196	0x3e038862	0.12844995
197	0x3d106152	0.035249062
198	0x3d3025f8	0.04300496
199	0xbea42b83	-0.32064447
200	0xbeba6498	-0.36404872
201	0xbe580876	-0.21096978
202	0xbd9d5fc1	-0.07684279
203	0xbedc6461	-0.43045333
204	0x3cab7efa	0.02093457
205	0xbd99e720	-0.07514787
206	0xbe3e9701	-0.18612291
207	0xbea9d874	-0.33172953
208	0xbf12768c	-0.5721214
209	0xbe1f70e4	-0.15570408
210	0x3f0bba24	0.54580903
211	0xbe4640ce	-0.19360659
212	0xbe996e81	-0.2996712
213	0x3d5bf26a	0.05369798
214	0x3ecb33b3	0.3968788
215	0xbe4fef91	-0.20306231
216	0xbe16fd53	-0.14745073
217	0xbea46b1e	-0.32112974
218	0x3e88acac	0.26694238
219	0xbe004adf	-0.12528561
220	0xbeb713ed	-0.3575739
221	0xbd8d4bc6	-0.06899218
222	0x3d859121	0.06521822
223	0x3e72f817	0.23727451
224	0xbed238e9	-0.41059044
225	0x3db7cdec	0.08974823
226	0xbd94a419	-0.07257862
227	0x3defbdcb	0.11706122
228	0x3dbc86ca	0.092053965
229	0xbdffff73	-0.12499895
230	0xbd509ed5	-0.050932724
231	0x3d7e1bf8	0.06203839
232	0x3d3cd442	0.046100862
233	0xbe0ca307	-0.13734065
234	0xbe52e5d5	-0.20595486
235	0x3ed27ad3	0.41109332
236	0x3ef657a6	0.48113745
237	0x3e049664	0.12947994
238	0xbee163e9	-0.44021538
239	0xbe834f66	-0.25646514
240	0xbd91df4d	-0.07122669
241	0xbd1555d6	-0.036458813
242	0x3e21b046	0.15789899
243	0xbf01cc52	-0.50702393
244	0xbe7c2381	-0.24622919
245	0xbdaa102b	-0.08303865
246	0x3e78dbea	0.2430264
247	0xbf8e986d	-1.1140267
248	0xbd4a7b78	-0.049434155
249	0x3dd1c58a	0.10242756
250	0xbdadc5a5	-0.08484963
251	0x3e823467	0.25430605
252	0x3d74c95b	0.05976234
253	0x3e8afb18	0.27144694
254	0x3cf082f8	0.029359326
255	0x3e07c70b	0.13259523

action_net.action_nets.0.0.bias f4 [32]
0	0x3ec305b5	0.38090292
1	0x3e9e589a	0.30926973
2	0x3ea55c2e	0.3229689
3	0xbebc205f	-0.36743447
4	0x3d88d5bf	0.06681394
5	0xbc6df518	-0.014523767
6	0x3c04bb1b	0.00810125
7	0xbf06fa21	-0.52725416
8	0xbe24a5b1	-0.16078831
9	0x3d9a5002	0.075347915
10	0xbe2d72d6	-0.16938338
11	0x3e10df30	0.1414764
12	0x3cf5c6a9	0.030001955
13	0x3c71bc9b	0.01475444
14	0xbe60a3b1	-0.21937443
15	0xbed1caf1	-0.40975145
16	0xbe2aa2a2	-0.16663602
17	0xbcc0d017	-0.023536725
18	0xbe0400bb	-0.12890904
19	0xbeeddd95	-0.46458116
20	0xbe8483c1	-0.2588177
21	0x3d45664d	0.048193265
22	0x3e787e0c	0.24266833
23	0xbd3e7d4e	-0.04650622
24	0xbbe42959	-0.006962937
25	0x3e2bfa0e	0.16794607
26	0x3d74645a	0.059666015
27	0xbec268c1	-0.37970546
28	0xbe88fde7	-0.26756212
29	0xbe0af0b5	-0.13568385
30	0xbdc38fb5	-0.09548894
31	0x3da5b044	0.080902606

action_net.action_nets.0.2.weight f4 [32, 32]
0	0xbf4098ff	-0.75233454
1	0x3c853bdb	0.016263893
2	0x3eff2d7f	0.49839398
3	0xbe658379	-0.22413434
4	0xbea70b4d	-0.3262581
5	0x3e3581fa	0.17725363
6	0xbf0525a2	-0.5201055
7	0xbf3074e3	-0.68928355
8	0xbe9684ca	-0.29398185
9	0x3cbf5c61	0.02335948
10	0x3e139a7a	0.14414397
11	0x3e9b1208	0.30287194
12	0x3ebf8d39	0.37412432
13	0xbe9ed298	-0.31020045
14	0x3ef6ffe5	0.48242107
15	0x3e961a07	0.29316732
16	0x3f732157	0.9497275
17	0x3eb6b2f5	0.35683408
18	0x3e785913	0.24252729
19	0x3f280929	0.6563898
20	0x3ddd2086	0.10797219
21	0xbe2392bf	-0.15973948
22	0xbe89bdc0	-0.2690258
23	0xbd64805d	-0.05578648
24	0x3f34de74	0.70651937
25	0xbec94581	-0.3931084
26	0xbf11bfd5	-0.5693334
27	0xbf135501	-0.5755158
28	0x3da4266c	0.08015141
29	0xbe987cb9	-0.29782656
30	0x3df08417	0.11743944
31	0xbf405c4b	-0.7514083
32	0x3e15a291	0.14612795
33	0x3df1c12f	0.11804425
34	0xbe6a06b1	-0.22854115
35	0x3ba196b6	0.004931296
36	0xbe116677	-0.14199243
37	0xbe81c7ed	-0.25347844
38	0x3efb87b7	0.4912698
39	0x3e9e1273	0.3087345
40	0x3eba1665	0.3634521
41	0xbd0b2ee5	-0.03398027
42	0xbe497ab1	-0.1967571
43	0xbdc39ba0	-0.095511675
44	0xbe11d13d	-0.14239974
45	0xbf1f3832	-0.6219512
46	0x3f8b1122	1.0864604
47	0x3f15ee0f	0.58566374
48	0xbe528230	-0.20557475
49	0x3e2ec8e8	0.17068827
50	0xbf482cd2	-0.7819339
51	0xbe0205f2	-0.1269758
52	0xbf1e026b	-0.6172244
53	0xbe1a0192	-0.15039662
54	0x3e2d7f62	0.16943124
55	0x3d31477d	0.043281067
56	0x3dbc7bd9	0.092033096
57	0xbcfb0074	-0.030639865
58	0x3e048e68	0.12944949
59	0xbed22f70	-0.41051817
60	0x3ecc336c	0.39882982
61	0x3e63a5c6	0.22231206
62	0x3f13914a	0.5764357
63	0x3eff0014	0.49804747
64	0x3f134458	0.5752616
65	0x3dcccd3a	0.10000081
66	0xbf0fae74	-0.5612557
67	0xbf1d91b5	-0.61550456
68	0xbf158b64	-0.5841582
69	0x3f35c7d2	0.71008027
70	0xbf09ddaa	-0.5385386
71	0x3e8ba71b	0.2727593
72	0xbe64253f	-0.22279833
73	0x3e79d393	0.24397115
74	0xbf23efcf	-0.64037794
75	0x3f013756	0.5047506
76	0xbdc2c873	-0.09510889
77	0xbe20a698	-0.1568855
78	0x3f4e44ba	0.8057362
79	0x3eadaee0	0.33922482
80	0xbe18e68b	-0.14931695
81	0xbe32c397	-0.17457424
82	0xbe8fd386	-0.28091067
83	0x3eb4fa2d	0.3534712
84	0xbf07704b	-0.5290572
85	0xbe618376	-0.22022805
86	0x3f5204ea	0.8203875
87	0xbe1fb714	-0.15597183
88	0xbdaf433b	-0.08557745
89	0x3f25067f	0.6446304
90	0x3e1f8f14	0.15581924
91	0x3eeb190d	0.4591755
92	0x3e834962	0.25641924
93	0x3e19ed5b	0.1503195
94	0x3dcd5517	0.10025995
95	0x3eafecbb	0.343603
96	0xbe95e0d5	-0.29273096
97	0xbef38900	-0.4756546
98	0xbf0be6a9	-0.54648834
99	0xbf1d0ee2	-0.61350834
100	0xbf300b63	-0.68767375
101	0x3daf4a0b	0.085590445
102	0x3d78f5ee	0.06078141
103	0x3f58aa9a	0.8463532
104	0x3ed34506	0.41263598
105	0xbee3ee9d	-0.44517985
106	0xbe56f300	-0.20991135
107	0x3e0a2559	0.1349081
108	0x3e133493	0.14375524
109	0xbcce2ae6	-0.02516694
110	0x3f6e0230	0.9297209
111	0x3ee4a6cd	0.4465851
112	0x3df3f2f3	0.11911573
113	0xbe4524d3	-0.19252329
114	0x3d1ba368	0.037997633
115	0xbe554665	-0.20827635
116	0xbc714baa	-0.014727512
117	0x3ed8f13a	0.4237154
118	0x3e631860	0.22177267
119	0xbe6ea1c6	-0.23303899
120	0xbe46fc42	-0.19432166
121	0xbdbf2c8e	-0.0933467
122	0xbe0bc44b	-0.13649099
123	0x3ee7071a	0.45122606
124	0x3ee42868	0.44562078
125	0xbf136811	-0.5758067
126	0x3eea8914	0.45807707
127	0xbdfe4ea9	-0.12417347
128	0x3e0e8f54	0.13921863
129	0x3ec640e0	0.3872137
130	0x3dd411d8	0.10354966
131	0xbee00075	-0.4375035
132	0x3d6bc42b	0.057560127
133	0xbf231fb2	-0.6372024
134	0x3eec0740	0.4609928
135	0x3e1b9594	0.15193778
136	0x3edc57f4	0.43035853
137	0xbd07417d	-0.03302144
138	0xbe52c131	-0.20581509
139	0x3f0dddc0	0.5541649
140	0x3d7ac403	0.061222088
141	0xbe85c080	-0.26123428
142	0xbe482490	-0.19545197
143	0x3f1b2ea1	0.60618025
144	0xbe8e88d3	-0.27838764
145	0x3f5e7c35	0.86908275
146	0xbf153862	-0.5828916
147	0x3ed5a9ab	0.4173101
148	0xbddd566f	-0.108075015
149	0x3e376529	0.17909683
150	0x3f2f93de	0.68585
151	0x3ecd1bb5	0.400602
152	0xbe99246a	-0.29910594
153	0x3f16f038	0.58960295
154	0xbee674e9	-0.4501107
155	0x3f0a144a	0.5393721
156	0x3e54c001	0.20776369
157	0xbd1bb71a	-0.038016416
158	0x3f59e0c7	0.8510861
159	0xbebd216d	-0.36939564
160	0x3f40dc0a	0.7533575
161	0xbe953860	-0.29144573
162	0xbde0e94f	-0.10982
163	0x3f2f62eb	0.6851031
164	0xbf304e4f	-0.6886949
165	0x3e6c9d05	0.23106773
166	0x3c493427	0.0122805005
167	0xbd37f42f	-0.044910606
168	0x3e6bf57d	0.23042865
169	0xbe6b3062	-0.22967675
170	0x3d589da0	0.052884698
171	0x3f063abb	0.52433366
172	0x3d040c00	0.032238007
173	0xbe2275c8	-0.15865242
174	0x3ed74f3a	0.42052633
175	0x3ef1237a	0.4709738
176	0x3e8691e3	0.26283178
177	0x3f0708f3	0.5274803
178	0xbef95f45	-0.48705497
179	0x3f338a46	0.70132864
180	0x3e9c6edd	0.30553332
181	0xbf0b2f72	-0.5436927
182	0xbdaa2e16	-0.083095714
183	0x3f770b18	0.965013
184	0xbedfbac4	-0.43697178
185	0xbe059c69	-0.13047947
186	0xbe23f1a6	-0.1601015
187	0xbe20cebe	-0.15703866
188	0x3e9b85dc	0.30375564
189	0xbe530696	-0.20607981
190	0x3e6d06c7	0.23147117
191	0xbafc1aaa	-0.0019234021
192	0x3e93572e	0.2877745
193	0x3ed3244a	0.41238624
194	0x3ed80e33	0.42198333
195	0x3dc4abc2	0.09603073
196	0x3f26b635	0.65121776
197	0x3e8ff95c	0.28119934
198	0x3df9b453	0.12192597
199	0x3f509d93	0.8149044
200	0xbf1c0be9	-0.60955673
201	0x3d5ac868	0.05341378
202	0x3d692a12	0.056924887
203	0x3f65c93a	0.8976017
204	0x3e9c14b0	0.30484533
205	0x3e8f2348	0.27956605
206	0x3ec7924d	0.38978806
207	0x3efabe63	0.4897338
208	0x3ef553f1	0.47915605
209	0xbc06cef6	-0.008228054
210	0x3ef26636	0.47343606
211	0xbdd804a9	-0.10547764
212	0x3d225c34	0.039638713
213	0xbed674d6	-0.41886014
214	0x3e305efc	0.17223734
215	0x3e9172b9	0.2840784
216	0x3f1542ed	0.58305246
217	0x3e1c9051	0.15289427
218	0xbde16319	-0.110052295
219	0xbf62eb87	-0.88640636
220	0x3f3243d8	0.6963477
221	0xbefd3d23	-0.49460706
222	0xbe782450	-0.24232602
223	0xbedbae6c	-0.4290651
224	0xbed4b31d	-0.41542903
225	0xbd507c6f	-0.05089992
226	0x3f2aa904	0.6666415
227	0xbeeba5b3	-0.46024856
228	0x3f46eda5	0.77706367
229	0xbec32f3f	-0.38121983
230	0x3f4515bd	0.76986295
231	0xbf138a9d	-0.5763338
232	0xbec84470	-0.39114714
233	0x3f03b3fe	0.5144652
234	0x3f25db04	0.64787316
235	0xbe3eba8e	-0.18625852
236	0x3c9d2992	0.019184861
237	0xbf83c6a9	-1.0295001
238	0xbf039879	-0.5140453
239	0x3d457ad5	0.048212845
240	0xbdd2d5ce	-0.10294686
241	0x3ec25fe1	0.37963775
242	0xbf0b7c24	-0.544863
243	0xbdb4e20f	-0.0883218
244	0xbdbbcc92	-0.09169878
245	0x3d857789	0.0651694
246	0x3d061484	0.03273441
247	0xbdef5338	-0.116857946
248	0x3e20c73e	0.15701005
249	0x3f56ace9	0.8385759
250	0x3dd440aa	0.10363896
251	0xbd6499fd	-0.055810917
252	0xbda951c5	-0.082675494
253	0x3efa9304	0.4894029
254	0xbdac1245	-0.08401922
255	0xbd60d96a	-0.054894842

action_net.action_nets.0.2.bias f4 [32]
0	0xbe39d949	-0.18149294
1	0xbe0ecd23	-0.13945441
2	0xbe8c45b3	-0.27396926
3	0xbec6ef72	-0.38854557
4	0x3edcc221	0.4311686
5	0x3d22c6cf	0.03974038
6	0x3e54369b	0.20723955
7	0x3e55911f	0.2085614
8	0x3cb08b7d	0.021550888
9	0x3ee9fa9c	0.45699012
10	0xbead272e	-0.33818954
11	0xbe22a285	-0.15882309
12	0x3eb3036a	0.34963542
13	0x3ecff2db	0.40614972
14	0x3e4a47e6	0.1975399
15	0x3e590920	0.21194887
16	0x3db2765f	0.08713984
17	0x3eb640f6	0.35596436
18	0xbe64b0b0	-0.22333026
19	0xbe280e5c	-0.16411728
20	0x3d50bc51	0.050960843
21	0xbd4bf2c6	-0.049792074
22	0x3e92c5e5	0.28666607
23	0x3e488cbf	0.1958494
24	0xbd687826	-0.056755207
25	0x3df720fb	0.120668374
26	0xbe8f1994	-0.27949202
27	0xbd19d33e	-0.037554972
28	0xbe029ab8	-0.12754333
29	0x3e19906e	0.14996502
30	0xbed75df8	-0.4206388
31	0xbbbb3560	-0.00571315

action_net.action_nets.0.4.weight f4 [3, 32]
0	0x3f3679f5	0.7127984
1	0x3e1da1a2	0.1539369
2	0x3e59f72a	0.21285692
3	0xbd7d505e	-0.061844222
4	0xbec5a38b	-0.38601336
5	0x3ead40d4	0.33838522
6	0x3f597825	0.8494895
7	0xbf0cfe0b	-0.5507514
8	0x3ed16e0c	0.40904272
9	0xbf262452	-0.6489917
10	0xbd81a622	-0.063305154
11	0x3f092eb9	0.5358692
12	0xbed26068	-0.41089177
13	0x3f39e4b5	0.72614604
14	0xbe2e42f8	-0.17017734
15	0x3ee04588	0.43803048
16	0x3f2f049e	0.6836642
17	0xbec47a0b	-0.3837436
18	0x3f03e087	0.51514477
19	0xbeae124a	-0.33998328
20	0xbf0fa54a	-0.56111586
21	0xbedbe12c	-0.4294523
22	0xbf680e60	-0.90646935
23	0xbf772841	-0.965458
24	0x3f5e5190	0.86843204
25	0x3e293cd5	0.16527112
26	0x3f4fd44b	0.8118331
27	0x3ef5422c	0.47902048
28	0xbea96f25	-0.3309261
29	0x3f88cd5f	1.0687674
30	0x3eb44411	0.3520818
31	0x3f618966	0.8810028
32	0xbed491aa	-0.41517383
33	0x3e9509af	0.2910895
34	0x3ea4bd27	0.32175562
35	0x3efb2447	0.49051115
36	0x3f319f30	0.69383526
37	0x3ebbcd15	0.36679903
38	0xbecf6085	-0.40503326
39	0xbe42ae54	-0.19011813
40	0xbeec4f72	-0.46154362
41	0x3f19a69a	0.6001984
42	0x3f61ecd2	0.88251984
43	0x3f1e6051	0.6186572
44	0x3f20cd45	0.62813216
45	0x3de39c62	0.11113812
46	0xbf01880a	-0.50598204
47	0xbe2774ba	-0.16353121
48	0x3d39bcd1	0.045346085
49	0xbf4950c7	-0.7863888
50	0xbf0b7f8b	-0.5449149
51	0x3e9959ca	0.29951316
52	0x3e166226	0.14685878
53	0x3f1af5fc	0.6053159
54	0xbcc23f45	-0.02371181
55	0x3f807e55	1.0038553
56	0xbec6fe3e	-0.38865846
57	0xbf25529e	-0.6457919
58	0xbe8abc12	-0.2709661
59	0xbf31d6b5	-0.6946824
60	0x3f06ccc0	0.52656174
61	0xbfb11773	-1.3835281
62	0xbf2e393f	-0.680561
63	0xbedf80d4	-0.43652976
64	0xbe9fe6d2	-0.3123079
65	0xbf01b24e	-0.50662696
66	0xbf20e551	-0.6284991
67	0xbf05c7a5	-0.5225776
68	0xbec26fd0	-0.3797593
69	0xbf579c09	-0.84222466
70	0xbf027120	-0.50953865
71	0x3f5e06a9	0.8672891
72	0x3dc4a977	0.09602635
73	0x3cdf5339	0.027261363
74	0xbf823eed	-1.0175453
75	0xbfad60fc	-1.3545222
76	0xbea9fb07	-0.3319933
77	0xbf779a2f	-0.9671964
78	0x3f52e3da	0.82378924
79	0xbe96e4a2	-0.29471308
80	0xbf600c4e	-0.87518775
81	0x3fb68176	1.4258258
82	0x3d96dbb2	0.07366122
83	0x3d2e5046	0.042557023
84	0x3eefe3ad	0.4685339
85	0xbe8d0170	-0.2754016
86	0x3f8364fc	1.0265193
87	0xbd8217f3	-0.06352224
88	0xbef01c27	-0.4689648
89	0x3f037f6a	0.51366293
90	0xbf144ac0	-0.5792656
91	0x3e8d0d27	0.27549097
92	0xbe895b4c	-0.26827466
93	0x3edcb336	0.43105477
94	0x3ec74d27	0.3892605
95	0xbef1ab69	-0.47201088

action_net.action_nets.0.4.bias f4 [3]
0	0xbe0a702c	-0.13519353
1	0xbd51754d	-0.051137257
2	0x3e5dfc81	0.21678354

action_net.action_nets.1.0.weight f4 [32, 96]
0	0xbd7747f4	-0.060371354
1	0x3e3ac080	0.18237495
2	0x3d52bce9	0.05144969
3	0xbd9bfd94	-0.076167256
4	0x3ce9c250	0.028535038
5	0xbe07470b	-0.13210694
6	0x3c3f49c4	0.011675302
7	0x3c6c1abe	0.014410673
8	0xbd92d8ff	-0.07170295
9	0x3e31f93f	0.17380236
10	0xbede2800	-0.43389893
11	0xbe62894a	-0.22122684
12	0x3dff714d	0.12472782
13	0x3eba8f0f	0.3643727
14	0x3e991521	0.29898933
15	0xbd73855c	-0.059453353
16	0xbcd04a7f	-0.025426148
17	0x3c9dad55	0.01924769
18	0xbc87cb1f	-0.016576348
19	0x3e8314d3	0.25601825
20	0x3c30a61e	0.010781793
21	0x3ee5ad64	0.4485885
22	0xbe0b7f66	-0.13622817
23	0xbe936661	-0.28789046
24	0x3e519411	0.20466639
25	0x3e2a1838	0.16610801
26	0xbc9cb5cb	-0.019129654
27	0xbecd2fba	-0.40075475
28	0x3e1a967f	0.15096472
29	0x3ec8b8c3	0.39203462
30	0x3e6975c2	0.22798827
31	0x3e102a09	0.14078535
32	0x3dd7a77a	0.105299905
33	0xbe1680cb	-0.14697568
34	0xbe098407	-0.1342927
35	0x3e01c9fb	0.12674706
36	0xbe356fcd	-0.1771843
37	0xbe229d12	-0.1588023
38	0x3e2a22af	0.16614793
39	0x3d9b02e1	0.075689085
40	0x3d726d3e	0.059186213
41	0xbe7cd3f0	-0.24690223
42	0x3efbb86d	0.49164143
43	0xbe0501aa	-0.12988916
44	0xbe2b9e0a	-0.16759506
45	0x3de07073	0.10958948
46	0xbf097248	-0.53690004
47	0xbea396b6	-0.3195092
48	0xbf2949b6	-0.661281
49	0xbd45067b	-0.048101883
50	0x3daf47db	0.08558627
51	0x3d505bd1	0.050868813
52	0x3f080637	0.53134483
53	0x3c04a93e	0.008096991
54	0x3ecd038c	0.4004177
55	0x3ac16e27	0.0014757559
56	0xbd54b6f8	-0.051932305
57	0x3ec6dd01	0.38840488
58	0x3c8fd8dd	0.017559463
59	0x3d55e6e2	0.05222214
60	0xbd7da3dc	-0.061923847
61	0x3d6b09f1	0.057382528
62	0x3e42b202	0.19013217
63	0x3d754d15	0.059887964
64	0x3d816fc8	0.06320149
65	0xbd617b93	-0.05504949
66	0x3e264404	0.16236883
67	0xbd88d3d6	-0.066810295
68	0x3e983976	0.2973134
69	0x3e6a1c38	0.22862327
70	0xbd21df5b	-0.03951965
71	0xbe7b3450	-0.24531674
72	0xbeccda74	-0.40010417
73	0xbd6d0418	-0.057865232
74	0xbe18c6af	-0.14919542
75	0x3dbbd109	0.0917073
76	0xbe264934	-0.16238862
77	0x3e4b10fa	0.19830695
78	0x3de657c6	0.1124721
79	0xbb9cff4e	-0.004791177
80	0xbd8ce1ab	-0.0687898
81	0xbc8644cb	-0.016390225
82	0x3d3ba99f	0.04581606
83	0x3ea84ba2	0.32870203
84	0xbe35a74a	-0.17739597
85	0xbf15689d	-0.5836275
86	0xbf264f77	-0.64965004
87	0xbe61293f	-0.2198839
88	0x3f10b0c1	0.56519705
89	0x3f44465d	0.76669866
90	0xbe0830ae	-0.1329982
91	0xbea132fd	-0.31484213
92	0xbeef7564	-0.4676925
93	0x3edef18f	0.4354367
94	0x3ddc27c6	0.10749774
95	0xbe810ad9	-0.2520359
96	0xbb26d1cd	-0.002545464
97	0x3e4ed46f	0.20198224
98	0x3eddb744	0.43303883
99	0x3f174dfb	0.59103364
100	0x3d0469f9	0.032327626
101	0xbea20605	-0.31645218
102	0xbebcf734	-0.3690735
103	0xbdf9ee67	-0.12203675
104	0xbbe64a01	-0.007027865
105	0x3e80b406	0.25137347
106	0xbf031ea3	-0.5121862
107	0xbe304b4f	-0.17216228
108	0x3c8414c6	0.016123187
109	0x3d7d4802	0.06183625
110	0x3f10f846	0.56628835
111	0xbea92cb8	-0.3304193
112	0xbe4e5f7e	-0.20153615
113	0xbcb42bd9	-0.021993564
114	0x3e306e7c	0.17229646
115	0x3e3bb2af	0.18329881
116	0x3e173ef7	0.14770113
117	0x3ecf96da	0.40544778
118	0x3eabc00b	0.33544955
119	0x3daf67bb	0.08564707
120	0x3c3b1d0c	0.0114204995
121	0x3e6d2aea	0.23160902
122	0xbe056054	-0.13025028
123	0xbd8de3aa	-0.06928189
124	0xbd376ce3	-0.044781577
125	0x3cc25fa8	0.023727253
126	0xbe3ad14a	-0.182439
127	0x3e4a5faf	0.19763063
128	0x3e8d6344	0.27614796
129	0xbe33fa79	-0.17576016
130	0xbed574bd	-0.41690627
131	0x3dc29f25	0.09503011
132	0x3ea9954c	0.33121717
133	0xbe939ea3	-0.28831968
134	0xbea5da8d	-0.32393304
135	0x3ec65133	0.38733825
136	0x3d613737	0.054984298
137	0x3d9d260d	0.07673273
138	0x3ea7e921	0.3279505
139	0x3ebd7ca6	0.37009162
140	0xbeab69bd	-0.3347911
141	0x3f65b05d	0.89722234
142	0x3d49293c	0.04911159
143	0xbd430d48	-0.047620088
144	0xbe84b198	-0.25916743
145	0xbcb6eb95	-0.022329131
146	0x3e4b5f92	0.19860676
147	0x3db7d11b	0.089754306
148	0xbe32418e	-0.1740782
149	0xbed4399d	-0.41450205
150	0xbe055e7d	-0.13024326
151	0xbe34eb3d	-0.17667861
152	0x3e149318	0.14509237
153	0x3e2c8fc9	0.16851725
154	0xbe5d3fff	-0.21606444
155	0xbe3ac36a	-0.18238607
156	0x394203b9	0.00018502669
157	0xbee76dae	-0.45200866
158	0xbe19d772	-0.15023592
159	0xbdce31f1	-0.10068119
160	0xbeece5d4	-0.46269095
161	0x3d8c7937	0.068590574
162	0x3e1d4658	0.15358865
163	0x3ec128ae	0.3772635
164	0xbd548316	-0.051882826
165	0x3ed21275	0.41029707
166	0x3bdce35f	0.006740972
167	0x3eb577d4	0.35442984
168	0x3e012033	0.1260994
169	0x3d34e9bf	0.04416823
170	0x3e2b29f6	0.16715226
171	0x3e87fbf5	0.26559415
172	0xbe17bca3	-0.14818053
173	0xbd6e8d88	-0.058240443
174	0xbec9f9e7	-0.39448473
175	0x3ea8a10c	0.3293537
176	0x3dc09a3a	0.094044164
177	0xbe182a95	-0.14859994
178	0xbec8a791	-0.39190343
179	0xbd105dd5	-0.035245735
180	0xbe26cd9a	-0.16289368
181	0x3c96175d	0.018321687
182	0xbcb3c945	-0.021946559
183	0x3f4363ec	0.76324344
184	0x3e8bbc80	0.27292252
185	0xbe242434	-0.16029435
186	0xbd17f74d	-0.03710108
187	0xbe975e54	-0.29564154
188	0xbc8ad6c3	-0.01694811
189	0x3eec9304	0.46205914
190	0x3c40f873	0.011777985
191	0xbd952504	-0.07282451
192	0xbd93d02c	-0.0721744
193	0xbe18b067	-0.14911042
194	0x3c4be81b	0.012445475
195	0x3e39edc3	0.18157105
196	0xbe3694f0	-0.17830253
197	0xbeaa7d86	-0.33298892
198	0xbe258ffe	-0.1616821
199	0x3e0a906d	0.13531657
200	0x3e59dd0d	0.2127573
201	0xbe99406f	-0.2993197
202	0x3caa5cc2	0.020796183
203	0x3e8013d8	0.2501514
204	0x3e4abf9c	0.19799656
205	0xbf1db6c4	-0.61607003
206	0xbe61f13b	-0.22064678
207	0xbe7c7bcd	-0.24656601
208	0x3da43716	0.08018319
209	0xbe39a925	-0.1813093
210	0xbc9263da	-0.017869879
211	0x3d57b75c	0.0526651
212	0xbe309b3e	-0.1724672
213	0x3cf1dfd8	0.029525682
214	0xbf3791be	-0.7170676
215	0xbe232843	-0.15933327
216	0xbe19564e	-0.14974329
217	0xbeded92d	-0.43525067
218	0x3e97ee4d	0.29673997
219	0x3e974671	0.2954593
220	0xbee42db3	-0.44566116
221	0xbea70792	-0.32622963
222	0xbe3446a4	-0.17605072
223	0xbe615751	-0.22005965
224	0x3db884ca	0.090097025
225	0x3d8b6b84	0.06807616
226	0x3dbb0e2b	0.09133562
227	0xbd901fc7	-0.07037311
228	0x3e23d8cf	0.16000675
229	0xbdfd557e	-0.12369822
230	0xbe86b78b	-0.26311907
231	0xbe323390	-0.17402482
232	0xbe5c6606	-0.21523294
233	0xbef62d17	-0.48081276
234	0xbef4f2fe	-0.47841638
235	0xbe542cd9	-0.20720233
236	0x3eba7831	0.36419824
237	0xbee887fb	-0.45416245
238	0x3e35d70f	0.1775782
239	0xbd94eb33	-0.07271423
240	0xbe500985	-0.20316131
241	0x3d09b4e1	0.033619765
242	0xbe688c32	-0.2270973
243	0xbef3446a	-0.47513133
244	0xbd899973	-0.06718721
245	0x3e10082e	0.1406562
246	0x3eab9563	0.3351241
247	0xbe87fed0	-0.26561594
248	0x3ed0910c	0.40735662
249	0x3e8ff6f5	0.281181
250	0xbeae6669	-0.34062508
251	0x3db4249d	0.08796046
252	0x3da40428	0.08008605
253	0xbf2e83df	-0.6816997
254	0x3d065794	0.032798365
255	0x3e56c791	0.20974566

action_net.action_nets.1.0.bias f4 [32]
0	0x3ba321dd	0.004978402
1	0xbdc1cd13	-0.09462943
2	0x3ddbf7cc	0.10740623
3	0x3dd06f8b	0.10177525
4	0xbd8507e9	-0.06495649
5	0x3d7c652b	0.06161992
6	0x3e50188b	0.20321862
7	0xbd8ede6f	-0.069760196
8	0x3dae2b30	0.08504331
9	0x3dcdeca0	0.10054898
10	0x3dafe57b	0.08588692
11	0x3e705af9	0.23472203
12	0x3e766e60	0.24065542
13	0x3b2c89d9	0.002632728
14	0x3eddd519	0.43326643
15	0xbde36522	-0.11103274
16	0x3e1afc30	0.15135264
17	0x3df2b22b	0.11850389
18	0x3e3c7c8f	0.1840689
19	0xbe818d15	-0.2530295
20	0xbdc4e81d	-0.096145846
21	0x3a9a3b82	0.0011767002
22	0x3cc1a8fb	0.023640146
23	0x3e2b7b5d	0.16746278
24	0x3da9d3f9	0.08292384
25	0x3e1b9d42	0.15196708
26	0x3d317fc4	0.043334737
27	0xbea7db17	-0.3278434
28	0x3e35adf0	0.17742133
29	0x3e55a4c3	0.20863633
30	0x3e7b0020	0.24511766
31	0xbe4a60c7	-0.1976348

action_net.action_nets.1.2.weight f4 [32, 32]
0	0x3e4adb35	0.19810183
1	0xbf06b934	-0.5262635
2	0xbd9eaba1	-0.07747579
3	0x3e14e223	0.1453939
4	0x3eab774f	0.33489463
5	0xbe7dad53	-0.24773149
6	0x3e26dde0	0.16295576
7	0xbec83d4a	-0.3910926
8	0xbe31cbb4	-0.17362863
9	0x3ecb815b	0.39747128
10	0x3d5d566a	0.05403749
11	0xbf084ec0	-0.5324516
12	0xbf010167	-0.50392765
13	0xbf07a994	-0.5299313
14	0xbf3443bc	-0.70415854
15	0x3d93493b	0.07191702
16	0x3e010126	0.12598094
17	0xbe58993a	-0.21152201
18	0xbdb31548	-0.087442935
19	0xbdac7846	-0.08421378
20	0x3f0a6df7	0.54074043
21	0x3daabd57	0.08336895
22	0xbef5d525	-0.4801418
23	0xbc3a0230	-0.011353061
24	0x3ec5cd40	0.38633156
25	0xbee71c6c	-0.45138872
26	0xbdc24bf6	-0.09487145
27	0xbe6fff5e	-0.23437259
28	0x3ea1d837	0.3161027
29	0x3f7d620f	0.9897775
30	0xbd92c1fa	-0.07165904
31	0x3e77d43d	0.24202056
32	0x3d89cd6d	0.06728635
33	0x3bd7fa76	0.0065911366
34	0x3e49028b	0.19629876
35	0xbd91371d	-0.0709059
36	0x3e4d41d6	0.20044646
37	0xbdd11e6c	-0.10210881
38	0xbe6eaa17	-0.23307072
39	0xbec6afcb	-0.38805994
40	0x3e61e699	0.22060622
41	0x3ed2e824	0.41192734
42	0x3ea17deb	0.3154138
43	0x3c9d79f5	0.019223193
44	0xbf37cac1	-0.7179375
45	0xbe2cdce7	-0.16881143
46	0xbe30da53	-0.17270784
47	0xbd974a22	-0.073871866
48	0xbf2ecae4	-0.68278337
49	0x3f70df75	0.9409097
50	0x3e8995f5	0.2687222
51	0xbf16d35e	-0.5891627
52	0xbeb66b53	-0.35628757
53	0xbeb2cede	-0.34923452
54	0x3ec47cf6	0.38376588
55	0x3caa242e	0.020769205
56	0x3e92209a	0.28540498
57	0x3efbf4d0	0.49210215
58	0x3c1c5d91	0.009543792
59	0x3eade96e	0.33967155
60	0xbdc54367	-0.096319966
61	0x3f051e25	0.5199912
62	0xbe60fb4e	-0.21970865
63	0x3b951fae	0.0045508957
64	0xbe52975b	-0.2056555
65	0xbe8e6d89	-0.27817944
66	0x3f3f6406	0.74762
67	0xbf0ee883	-0.55823535
68	0xbf14b9e3	-0.5809614
69	0xbedf8042	-0.4365254
70	0xbf1c7973	-0.61122817
71	0x3d98bc7a	0.07457824
72	0xbf1120f3	-0.566909
73	0xbe2c1096	-0.16803202
74	0x3e82dcad	0.25558987
75	0xbf547c3e	-0.8300208
76	0xbefbc528	-0.49173856
77	0x3e8736af	0.26408908
78	0x3ebd100c	0.36926305
79	0x3d2fc098	0.04290828
80	0x3eda5233	0.42640838
81	0x3e714c3e	0.2356424
82	0xbda01284	-0.078160316
83	0xbe3d281c	-0.18472332
84	0x3e437209	0.1908647
85	0xbde3c34c	-0.11121234
86	0xbe05ab6c	-0.13053674
87	0xbec11f09	-0.3771899
88	0xbec64b69	-0.38729408
89	0xbe624f1d	-0.22100492
90	0xbe709ca6	-0.23497257
91	0x3dcdba15	0.10045258
92	0x3eea3163	0.45740804
93	0x3eb5817f	0.3545036
94	0xbf281add	-0.6566599
95	0xbe546aa6	-0.20743808
96	0xbeacc350	-0.33742762
97	0xbdcdbff3	-0.10046377
98	0x3ef7aa52	0.48372132
99	0x3d8d24ed	0.06891809
100	0x3cbbc8cd	0.022922898
101	0xbe1f71a8	-0.155707
102	0x3e5916e8	0.21200144
103	0xbe33054a	-0.17482486
104	0xbee7e251	-0.45289853
105	0xbeb7ca76	-0.35896653
106	0x3f10529b	0.56376046
107	0x3f26d21c	0.6516435
108	0xbf084b0d	-0.5323952
109	0xbf201473	-0.62531203
110	0x3d654890	0.055977404
111	0x3f406d27	0.75166553
112	0xbeb14cad	-0.3462881
113	0xbe9fef5d	-0.31237307
114	0x3e437562	0.19087747
115	0xbf6e7516	-0.9314741
116	0xbf061932	-0.52382195
117	0xbe8f5f63	-0.28002462
118	0x3ca4a0ce	0.020096209
119	0x3e4e092c	0.20120686
120	0xbeb0cf50	-0.34533167
121	0xbf0b7a79	-0.54483753
122	0x3ed8798a	0.42280227
123	0xbed70c8d	-0.42001763
124	0xbea1f226	-0.31630057
125	0xbeb3c2bf	-0.35109517
126	0xbd07686d	-0.033058573
127	0xbe5506d3	-0.20803384
128	0xbe507269	-0.20356144
129	0xbf10040d	-0.5625618
130	0x3df3687f	0.118851654
131	0x3f2f0555	0.6836751
132	0x3f2a5ba9	0.6654611
133	0x3d1facfe	0.038983338
134	0x3e4e4c88	0.20146382
135	0xbeee1aa4	-0.465047
136	0x3ec01cbd	0.37521926
137	0xbe521649	-0.20516314
138	0x3e1081a6	0.14111957
139	0xbd293287	-0.041307952
140	0xbf035cdf	-0.51313585
141	0x3c720b14	0.014773149
142	0x3e82afbc	0.255247
143	0xbe610d6d	-0.21977778
144	0x3ee204f4	0.44144404
145	0x3dae424f	0.08508741
146	0xbdc9ef35	-0.09860078
147	0xbfa046c6	-1.2521598
148	0x3ea5104d	0.32239
149	0x3d16b351	0.036792103
150	0x3ae0a55a	0.0017139122
151	0xbe10be72	-0.14135149
152	0x3d617c85	0.05505039
153	0x3ef12953	0.4710184
154	0x3e3318af	0.17489885
155	0x3d02477e	0.03180646
156	0xbc7223b4	-0.01477902
157	0xbeb4d35d	-0.35317507
158	0x3f11e8ca	0.5699583
159	0x3e2b6f49	0.1674167
160	0xbc189859	-0.009313666
161	0xbea4ec87	-0.32211706
162	0xbe7117b6	-0.23544201
163	0xbed97575	-0.42472425
164	0xbdd1a044	-0.10235646
165	0x3f5b3e42	0.8564187
166	0x3f29bfee	0.66308486
167	0x3ed0c469	0.4077485
168	0x3e600279	0.21875943
169	0x3f263c3d	0.64935666
170	0xbd4057a0	-0.046958566
171	0x3e393d9b	0.18089907
172	0x3e8658bd	0.26239577
173	0x3dbf8f87	0.093535475
174	0x3df9f62b	0.12205156
175	0x3e2a4361	0.16627266
176	0x3ea44fc8	0.32092118
177	0x3eff42f8	0.4985578
178	0xbe30b829	-0.17257752
179	0xbefc5c51	-0.49289182
180	0x3f00fd2d	0.50386316
181	0x3df7ceac	0.120999664
182	0x3f112aef	0.56706136
183	0xbf07e8c5	-0.53089553
184	0xbe2b2187	-0.16712008
185	0x3dd15631	0.10221518
186	0xbd831d5a	-0.06402083
187	0x3f0c8859	0.5489555
188	0xbe8e415b	-0.27784237
189	0x3eb3a9f2	0.35090595
190	0x3dc805ff	0.09766769
191	0x3f03555b	0.5130212
192	0xbf9716e4	-1.1803861
193	0xbe02a387	-0.12757693
194	0x3e93866c	0.28813493
195	0x3e86c87e	0.26324838
196	0x3df05321	0.117346056
197	0x3db80d48	0.08986908
198	0xbca66c8d	-0.020315433
199	0xbeb82194	-0.35963118
200	0x3e424869	0.18972935
201	0x3ee09324	0.4386226
202	0xbd944eb6	-0.072415754
203	0x3ecbb540	0.3978672
204	0xbe9ea1a7	-0.30982706
205	0xbe0afb54	-0.13572437
206	0xbda51419	-0.08060474
207	0x3ec6d1f8	0.38832068
208	0xbdfdf57d	-0.12400339
209	0xbef0e13c	-0.4704684
210	0x3d21140a	0.03932575
211	0x3e0ff0ba	0.14056674
212	0x3e5f2b6d	0.2179391
213	0xbf40bed8	-0.75291204
214	0x3deb76c8	0.11497265
215	0xbe8f195c	-0.27949035
216	0xbe804491	-0.25052312
217	0x3d14ca7d	0.03632592
218	0xbebbfe2d	-0.36717358
219	0x3ed85c5e	0.4225797
220	0x3f2122fb	0.62944
221	0xbe9b1bb9	-0.30294588
222	0xbf8df9a7	-1.1091813
223	0xbdd2825e	-0.10278772
224	0x3e948599	0.29008177
225	0xbf243c8a	-0.64154875
226	0x3f8ce921	1.1008645
227	0x3f290bb0	0.6603346
228	0x3ea6746e	0.32510704
229	0x3e82c7d8	0.25543094
230	0x3f276dd9	0.6540199
231	0xbe1c11e7	-0.15241204
232	0xbea57662	-0.3231688
233	0x3e3c5f15	0.18395646
234	0xbd8ea333	-0.069647215
235	0x3d49bf52	0.049254723
236	0x3d8efde0	0.069820166
237	0x3f15c4ba	0.58503306
238	0x3c6e9ccf	0.014563753
239	0xbdeed902	-0.11662485
240	0xbe05e086	-0.1307393
241	0x3f0de4ed	0.5542744
242	0x3d449920	0.047997594
243	0x3ec583db	0.3857716
244	0x3e0f3e75	0.13988669
245	0x3ea6c7f0	0.32574415
246	0xbebcf678	-0.3690679
247	0xbede18a0	-0.43378162
248	0xbdc551fb	-0.09634777
249	0x3e819a5a	0.25313073
250	0xbf031e8c	-0.51218486
251	0x3eeafdfe	0.45896906
252	0x3eaa6a03	0.33284006
253	0xbe11904c	-0.14215201
254	0xbe9108cc	-0.28327024
255	0xbe144898	-0.14480817

action_net.action_nets.1.2.bias f4 [32]
0	0xbd2c453a	-0.042058207
1	0x3f06074f	0.523549
2	0xbed7725f	-0.42079446
3	0xbe1d4bf2	-0.15361002
4	0xbe33b29c	-0.17548603
5	0xbe1da116	-0.1539348
6	0x3d5947e0	0.05304706
7	0x3e2d38be	0.16916177
8	0xbdc0c6cf	-0.0941292
9	0xbe61ec59	-0.22062816
10	0xbdf126fa	-0.11775012
11	0xbe06821e	-0.13135573
12	0x3e44af0d	0.19207402
13	0x3d034b13	0.03205402
14	0xbd29638d	-0.041354705
15	0x3e357d6c	0.17723626
16	0xbebde513	-0.37088832
17	0x3e1d88df	0.15384243
18	0xbe1f94d3	-0.15584116
19	0xbd70a6ee	-0.058752947
20	0xbe1e5855	-0.15463383
21	0xbe9bdc4f	-0.3044152
22	0xbe3e7a26	-0.18601283
23	0x3c38735b	0.011257972
24	0xbdbbe7e4	-0.09175089
25	0x3c4d5d37	0.012534431
26	0xbd075090	-0.033035815
27	0x3da32678	0.07966322
28	0xbe7ae3b1	-0.2450092
29	0xbe04cae1	-0.12968017
30	0xbe966a29	-0.2937787
31	0x3d4e6efd	0.050398815

action_net.action_nets.1.4.weight f4 [1, 32]
0	0xbdcac31e	-0.09900497
1	0xbe1ff944	-0.15622431
2	0x3e740da2	0.23833326
3	0xbe80ee40	-0.2518177
4	0x3e321292	0.17389897
5	0x3dc0e44f	0.094185464
6	0xbe54ec5f	-0.20793293
7	0x3e8499f7	0.25898716
8	0x3e20b35d	0.15693422
9	0x3e5c869a	0.21535721
10	0x3eda9970	0.4269519
11	0xbe27cf02	-0.16387561
12	0xbdcb5077	-0.09927457
13	0x3e75b612	0.23995236
14	0xbe2303ba	-0.1591939
15	0x3ec245c4	0.37943852
16	0x3eb74749	0.35796574
17	0x3e9fd147	0.31214353
18	0x3e13a8d9	0.14419879
19	0x3e88c14e	0.2670998
20	0xbd802888	-0.06257731
21	0xbeb7a278	-0.3586614
22	0xbddf15e1	-0.10892845
23	0xbdba0e6b	-0.09084781
24	0xbdd55620	-0.10416818
25	0x3c8f75eb	0.017512282
26	0xbe9b7e01	-0.3036957
27	0xbef030f2	-0.46912342
28	0x3df7971a	0.12089367
29	0x3d232b71	0.03983635
30	0x3e5d89e1	0.21634628
31	0xbd854dc2	-0.06508972
