logs_smallNet/masked_ppo/crossing_planes_multiHead_1/best_model/policy.pth (torch, 89340 bytes, 12 tensors)

log_std f4 [4]
0	0x00000000	0.0
1	0x00000000	0.0
2	0x00000000	0.0
3	0xbfc2d0c8	-1.5219965

mlp_extractor.policy_net.0.weight f4 [64, 96]
0	0x3e70119e	0.2344422
1	0x3d539039	0.051651213
2	0x3e46ac06	0.19401559
3	0x3e85ee44	0.26158345
4	0x3e7c4c98	0.24638593
5	0x3e2f18be	0.17099282
6	0x3d20bcbf	0.039242502
7	0xbe2c7de6	-0.16844901
8	0x3e89fd3a	0.2695101
9	0x3c2dc6e3	0.0106065
10	0xbe189bb6	-0.14903149
11	0xbe0b4431	-0.13600232
12	0x3ea4c64f	0.32182547
13	0x3e2238bf	0.1584196
14	0xbe43e83a	-0.19131556
15	0xbdd1c7d6	-0.10243194
16	0x3e6409e3	0.22269396
17	0xbd9d84fd	-0.07691381
18	0xbdda4764	-0.10658148
19	0x3e2dd73b	0.16976635
20	0x3cb06ac4	0.021535285
21	0xbe9b563d	-0.30339232
22	0x3e4b51ee	0.19855472
23	0x3dd0bc46	0.1019216
24	0x3d8abc53	0.06774201
25	0xbe3318b2	-0.1748989
26	0xbda8f8c3	-0.082505725
27	0x3cf5d3a5	0.030008147
28	0xbe36c88f	-0.17849945
29	0x3e9cc392	0.30617958
30	0x3e2234a6	0.15840396
31	0x3dd20a73	0.10255899
32	0x3e9d0e10	0.3067479
33	0xbe19c8e9	-0.15018047
34	0x3d08c08c	0.033386752
35	0xbd063021	-0.032760743
36	0x3df6fc17	0.12059801
37	0x3d9b7002	0.07589723
38	0xbd043ef9	-0.032286618
39	0xbcc52b59	-0.024068521
40	0xbe099dbd	-0.13439079
41	0xbdb6d3ab	-0.08927091
42	0x3ea43a94	0.32075942
43	0x3e741e8e	0.2383978
44	0xbecf37a7	-0.40472147
45	0xbdd27b63	-0.102774404
46	0xbed3d053	-0.41369876
47	0xbf0d4939	-0.55189854
48	0xbe2698e7	-0.16269265
49	0xbe1863cd	-0.14881821
50	0x3d117ec0	0.03552127
51	0x3ed40108	0.41407037
52	0x3eda9cd0	0.42697763
53	0xbe611b53	-0.2198308
54	0x3e8b1dfc	0.27171314
55	0x3d440a62	0.047861464
56	0x3eb2e0ec	0.34937227
57	0xbe365ff6	-0.17810044
58	0x3bf38c0a	0.0074324654
59	0xbd5c3c86	-0.053768657
60	0x3ea397cc	0.3195175
61	0xbe83662f	-0.25663897
62	0x3e7c8d58	0.24663293
63	0xbe9f8743	-0.31157884
64	0xbdce7148	-0.100802004
65	0x3dd9c912	0.10634054
66	0x3dd47254	0.10373369
67	0xbedf3618	-0.43595958
68	0x3e3af1cb	0.18256299
69	0xbe45efb5	-0.19329722
70	0x3d299172	0.041398473
71	0xbe48a5e4	-0.19594532
72	0x3e18a5da	0.14907017
73	0xbdbe9368	-0.09305459
74	0xbea51a59	-0.32246664
75	0xbcbc972e	-0.023021307
76	0x3ea26819	0.31720045
77	0xbdf5ce26	-0.1200221
78	0xbd5b42be	-0.053530447
79	0x3da6f2d9	0.08151788
80	0x3dd1e4b2	0.10248698
81	0xbe63826a	-0.22217718
82	0x3e3c7ffd	0.18408199
83	0xbe435b41	-0.1907778
84	0x3e079ae6	0.13242683
85	0xbe805bd4	-0.2507006
86	0x3e6a6380	0.22889519
87	0x3de8faee	0.11375986
88	0x3dbb4871	0.091446765
89	0x3e35f167	0.17767869
90	0x3e954d9d	0.29160777
91	0x3cc14937	0.023594482
92	0x3e2c2994	0.16812736
93	0x3da783f3	0.08179464
94	0xbd132679	-0.035925362
95	0xbe8cd826	-0.27508658
96	0xbe2809b9	-0.16409959
97	0xbd913496	-0.07090108
98	0xbe422f32	-0.18963316
99	0x3e38933e	0.18024918
100	0xbd827f7d	-0.06371973
101	0x3c2c35e9	0.0105109
102	0x3e39e389	0.18153204
103	0xbe41b048	-0.18914902
104	0xbe0337eb	-0.128143
105	0x3e8cdd40	0.2751255
106	0x3dea7857	0.11448734
107	0x3e710ce7	0.23540078
108	0xbe8ac2e7	-0.27101824
109	0x3d94424b	0.07239207
110	0xbe2d2606	-0.16909036
111	0x3eef8ea5	0.46788517
112	0x3e0fec5f	0.14055012
113	0xbe380470	-0.17970443
114	0xbdc5f650	-0.09666121
115	0x3deae745	0.114698924
116	0x3d08bf95	0.033385832
117	0xbe97470f	-0.295464
118	0xbe95f835	-0.2929093
119	0xbd1bfa9a	-0.03808079
120	0xbb784463	-0.0037882559
121	0x3e3c971b	0.18417017
122	0xbd9d6ae9	-0.07686407
123	0xbe7add0f	-0.2449839
124	0x3dbcba01	0.09215165
125	0x3d9424d5	0.07233588
126	0x3ca99b34	0.02070389
127	0xbdbbe8ce	-0.09175263
128	0x3d8b2e84	0.067959815
129	0x3e69cf63	0.22833018
130	0xbdaae8b4	-0.08345166
131	0x3ac79dd7	0.0015229535
132	0xbe265dce	-0.16246721
133	0x3e3c4aa7	0.18387853
134	0xbde75dc8	-0.11297184
135	0xbd90ada7	-0.070643716
136	0xbd4cbfd3	-0.049987625
137	0xbe0bcf66	-0.13653335
138	0x3e8d6355	0.27614847
139	0xbe3e3a3b	-0.185769
140	0x3dd69060	0.10476756
141	0xbe01364f	-0.12618373
142	0x3e2d2a24	0.16910607
143	0xbebcf020	-0.3690195
144	0x3d021bb9	0.03176472
145	0xbe06cad0	-0.13163304
146	0x3e755ac6	0.23960409
147	0xbd580854	-0.052742317
148	0xbe168eb0	-0.14702868
149	0xbe902672	-0.2815433
150	0xbee222ef	-0.44167277
151	0xbf0a5fe8	-0.5405259
152	0xbdd50682	-0.10401632
153	0xbe2e2ae2	-0.17008546
154	0x3e85705c	0.26062286
155	0x3e7ec1a5	0.24878557
156	0x3ddbb6a8	0.10728198
157	0xbdb9fab5	-0.09081022
158	0xbe6b833e	-0.22999284
159	0xbe8a18d2	-0.2697206
160	0xbe173e84	-0.14769942
161	0xbda6428a	-0.0811816
162	0xbf09de88	-0.5385518
163	0x3e4718f1	0.19443108
164	0x3ece437c	0.40285861
165	0xbe170997	-0.14749752
166	0x3db8415a	0.0899684
167	0x3e6ce024	0.23132378
168	0x3e19997e	0.14999959
169	0xbe3279ca	-0.17429271
170	0xbdf91729	-0.121626206
171	0xbeaf9462	-0.34292895
172	0x3d526afc	0.05137156
173	0x3e568709	0.2094995
174	0xbcef2f70	-0.029197425
175	0xbee7abce	-0.45248264
176	0x3d955295	0.07291142
177	0x3cf2e488	0.029649988
178	0xbe989acf	-0.2980561
179	0x3d8af744	0.067854434
180	0x3d35fea7	0.04443231
181	0x3bacef8d	0.00527758
182	0xbf0a4610	-0.54013157
183	0xbd4f967a	-0.050680615
184	0x3e3b1fef	0.182739
185	0xbe7eaabd	-0.24869819
186	0x3e43446f	0.19069074
187	0x3d7c1d18	0.061551183
188	0x3c4068b4	0.011743713
189	0xbe821044	-0.25403035
190	0xbe801302	-0.25014502
191	0xbd76bec5	-0.060240526
192	0xbd66ecbd	-0.056378115
193	0xbcdc84ac	-0.026918732
194	0xbeb3327d	-0.34999457
195	0xbde3d493	-0.1112453
196	0x3e601f68	0.2188698
197	0x3d2175ed	0.039419103
198	0xbe695a1e	-0.22788283
199	0xbe48bfa2	-0.19604352
200	0xbed7df73	-0.42162666
201	0x3d8fec01	0.07027436
202	0xbdcdd26e	-0.10049902
203	0x3a011624	0.00049242587
204	0xbca6f25b	-0.020379236
205	0x3e81867d	0.2529792
206	0xbe121782	-0.1426678
207	0xbe0186e6	-0.12649116
208	0xbdf585eb	-0.119884335
209	0xbe312a98	-0.17301404
210	0x3e0749f7	0.13211809
211	0xbe6bf474	-0.2304247
212	0xbde4c7e1	-0.111709364
213	0xbe31374a	-0.17306247
214	0xbe6ae243	-0.22937874
215	0xbd97c374	-0.074103266
216	0x3d99faba	0.075185254
217	0xbb980566	-0.0046393154
218	0xb9f554cd	-0.00046793223
219	0xbcbdeb8c	-0.023183607
220	0xbe38270a	-0.17983642
221	0x3e86004b	0.261721
222	0xbda3a8d3	-0.07991185
223	0xbdad1555	-0.084513344
224	0xbef4ecc8	-0.478369
225	0x3eb88921	0.3604212
226	0x3dd2522f	0.102695815
227	0xbe0089fd	-0.12552638
228	0xbe480321	-0.19532444
229	0xbe7f9398	-0.24958646
230	0xbdd97be4	-0.106193334
231	0xba08b359	-0.0005214713
232	0x3e155d08	0.1458627
233	0x3c84c314	0.016206302
234	0xbef48c9e	-0.47763532
235	0x3e626718	0.2210964
236	0x3d1ba3ef	0.037998136
237	0x3d01ccde	0.031689517
238	0xbe7687ea	-0.24075285
239	0x3c7cbd4d	0.015425992
240	0x3dc33b26	0.09532766
241	0x3e2ac7d6	0.16677794
242	0x3e06f427	0.13179074
243	0xbe459751	-0.19296004
244	0xbd5b2362	-0.05350054
245	0xbdef181c	-0.116745204
246	0xbeb1edeb	-0.3475183
247	0xbdbec767	-0.09315377
248	0x3d3a13ad	0.04542892
249	0xbeb99cc6	-0.3625242
250	0x3d981464	0.07425764
251	0xbe0d58df	-0.13803433
252	0xbe2086a9	-0.15676369
253	0xbec67938	-0.38764358
254	0x3e501a58	0.2032255
255	0x3e802662	0.25029284

mlp_extractor.policy_net.0.bias f4 [64]
0	0x3d1b7547	0.03795364
1	0xbd5b81ca	-0.053590573
2	0xbd808979	-0.06276221
3	0xbe455f4c	-0.19274634
4	0x3e5f3bfe	0.21800229
5	0xbde52728	-0.11189109
6	0xbdf60932	-0.120134726
7	0x3e43c1ab	0.19116847
8	0x3dc8e372	0.09809007
9	0x3da83e7c	0.08215043
10	0xbe594d0c	-0.21220797
11	0x3e061313	0.13093214
12	0xbe5aa3de	-0.21351573
13	0x3d61ff4b	0.055175107
14	0xbd5dd54f	-0.054158505
15	0xbe31a6fc	-0.17348856
16	0xbd853028	-0.06503326
17	0xbea68b16	-0.3252799
18	0xbd50265c	-0.050817832
19	0x3d937628	0.07200271
20	0xbd023173	-0.03178544
21	0xbe831c94	-0.2560774
22	0x3dca7ad2	0.09886707
23	0xbe224395	-0.15846093
24	0x3da8b008	0.082367
25	0x3e336478	0.17518795
26	0x3df0f0a3	0.11764648
27	0x3ded0955	0.115740456
28	0x3d8890c6	0.06668238
29	0x3e416775	0.18887122
30	0xbe464abe	-0.1936445
31	0x3d8968bf	0.06709432
32	0xbe1a83e2	-0.15089372
33	0xbcfe1110	-0.031013995
34	0xbdb74ff3	-0.08950796
35	0xbda441ed	-0.08020387
36	0x3dd8c010	0.10583508
37	0x3d4502da	0.048098423
38	0x3de5ce30	0.11220968
39	0x3c341d5d	0.010993329
40	0x3b295521	0.0025838094
41	0x3e239ef3	0.15978603
42	0xbd9669be	-0.073443875
43	0xbeb39d67	-0.35081026
44	0xbeb2dfe8	-0.34936452
45	0x3d85be4e	0.06530438
46	0x3c7d13e9	0.0154466415
47	0x3d645c59	0.055752132
48	0xbe725f3f	-0.23669146
49	0x3e5b19d1	0.21396567
50	0x3d69bf6d	0.057067323
51	0x3e84b0ea	0.25916225
52	0xbe53ad71	-0.20671631
53	0xbc7685f5	-0.015046586
54	0x3e75d75c	0.24007934
55	0xbe228915	-0.15872605
56	0xbe07c16a	-0.13257375
57	0xbd39b166	-0.045335196
58	0xbd31a1f8	-0.043367356
59	0x3e21f554	0.15816242
60	0xbccd14e8	-0.025034383
61	0xbe20bd58	-0.15697229
62	0xbe191fac	-0.14953488
63	0x3e9876c2	0.29778105

mlp_extractor.policy_net.2.weight f4 [64, 64]
0	0x3d27289a	0.040810205
1	0xbe82f09e	-0.255742
2	0x3cf321c0	0.02967918
3	0x3dcee941	0.101030834
4	0xbe427ddd	-0.18993326
5	0xbde2bf1c	-0.110716075
6	0x3e6cc713	0.23122816
7	0x3e29a8bf	0.16568278
8	0xbe79521a	-0.24347726
9	0x3ddc8aad	0.10768638
10	0x3ee2bdf6	0.44285554
11	0x3e262475	0.16224845
12	0x3e806ede	0.25084585
13	0x3ea57e7d	0.32323065
14	0x3d61169f	0.054953214
15	0x3e083728	0.1330229
16	0x3cdf6d33	0.02727375
17	0xbe658168	-0.22412646
18	0xbd4b715b	-0.04966865
19	0x3e648b97	0.22318874
20	0x3f3ca1a4	0.73684144
21	0xbc0d696e	-0.008631093
22	0xbebc657d	-0.3679618
23	0x3f00aaad	0.5026043
24	0x3ea101b8	0.31446624
25	0xbe60236a	-0.2188851
26	0x3ec8442f	0.3911452
27	0xbe910674	-0.28325236
28	0x3e5db4ff	0.21651076
29	0xbe24da67	-0.16098939
30	0x3e0bb6e7	0.1364399
31	0x3d1fe680	0.03903818
32	0xbeb1d2d4	-0.34731162
33	0x3ebbf41c	0.36709678
34	0x3e599abd	0.21250434
35	0xbe20655e	-0.15663669
36	0x3b5e9792	0.0033964855
37	0xbed0254d	-0.40653458
38	0x3be48a3a	0.0069744857
39	0x3e6a1efa	0.22863379
40	0xbbedd0c2	-0.007257552
41	0xbf1f209a	-0.6215912
42	0xbc2df485	-0.01061738
43	0xbd219e05	-0.03945734
44	0xbdf379f0	-0.11888492
45	0xbf074323	-0.5283682
46	0xbe6febe5	-0.2342983
47	0x3e01f5e0	0.1269145
48	0xbd1094b6	-0.03529807
49	0xbe21cad1	-0.15800025
50	0xbe295fa8	-0.16540396
51	0xbe2f7c83	-0.17137341
52	0xbb7e9c19	-0.0038850366
53	0x3eb19428	0.34683347
54	0x3e470bd8	0.19438112
55	0x3e8c3be4	0.27389443
56	0xbd9109e0	-0.07081962
57	0x3f5bb877	0.85828346
58	0xbe04d062	-0.12970117
59	0x3d8f2143	0.06988766
60	0xbda241fb	-0.07922741
61	0x3d10a6be	0.035315268
62	0xbc9b249e	-0.018938359
63	0x3f331fb0	0.69970226
64	0x3ccb2f94	0.02480296
65	0xbb913736	-0.0044316305
66	0xbe20e202	-0.15711215
67	0x3d8b62a0	0.068059206
68	0xbf1b84b0	-0.6074934
69	0x3e22068f	0.15822814
70	0xbe8f0ad7	-0.27937958
71	0xbd2543a3	-0.040347707
72	0x3e57fd1e	0.2109265
73	0x3e0baf3e	0.13641068
74	0x3e55203c	0.20813078
75	0x3f0b8940	0.545063
76	0xbe60b596	-0.2194427
77	0x3efdeb0c	0.4959339
78	0xbf04e428	-0.5191064
79	0xbe905660	-0.281909
80	0xbefa53f1	-0.48892167
81	0x3f183f68	0.5947175
82	0xbec1883a	-0.37799245
83	0xbe9d8535	-0.3076569
84	0x3e388847	0.18020736
85	0x3d058604	0.03259851
86	0x3e0cf90f	0.13766883
87	0xbedc5c93	-0.4303938
88	0x3e8704b1	0.26370767
89	0xbe37c006	-0.17944345
90	0xbed19346	-0.40932673
91	0xbd404cf4	-0.04694839
92	0x3d3f72d1	0.046740357
93	0xbea1efc8	-0.3162825
94	0x3f17421a	0.5908524
95	0xbea21f06	-0.31664294
96	0xbaf1efcc	-0.0018458306
97	0xbcc76f11	-0.024344953
98	0xbf000b45	-0.50017196
99	0x3beca8a3	0.0072222515
100	0x3eb31665	0.34978023
101	0xbe882c2d	-0.26596203
102	0xbece561a	-0.40300065
103	0xbc5d17aa	-0.0134944115
104	0x3e112520	0.14174318
105	0xbcf1bb72	-0.029508326
106	0xbe7f8bb2	-0.24955633
107	0xbe09df2b	-0.13464038
108	0xbe7addbd	-0.24498649
109	0x3e116cb9	0.1420163
110	0xbe868cbe	-0.26279253
111	0xbd648ae8	-0.055796534
112	0x3e9afa6a	0.30269176
113	0x3d9aecc9	0.075646944
114	0x3e98c0f9	0.29834726
115	0x3e4c6d4d	0.1996357
116	0xbef510b4	-0.47864306
117	0xbe11a953	-0.14224748
118	0x3c872e1a	0.016501475
119	0x3e8d6e66	0.2762329
120	0x3dfe3c90	0.12413895
121	0x3cd4a615	0.0259581
122	0xbce852dd	-0.028359825
123	0xbd819b12	-0.063284054
124	0xbe81222c	-0.25221384
125	0xbe864053	-0.2622095
126	0xbf08ab35	-0.5338624
127	0xbe847001	-0.25866702
128	0x3e3d7cc4	0.18504626
129	0x3ed580ea	0.41699916
130	0xbe83173d	-0.25603667
131	0x3f12170f	0.57066435
132	0x3e87cb9d	0.26522532
133	0x3d9ec884	0.07753089
134	0x3e948395	0.2900664
135	0x3e254e20	0.16143084
136	0xbed56011	-0.41674855
137	0x3e3102fe	0.17286298
138	0x3d4c6233	0.049898338
139	0xbd03db37	-0.03219148
140	0xbe1c33f5	-0.15254195
141	0xbee78614	-0.4521948
142	0xbd6d81c1	-0.05798507
143	0x3eda8eed	0.4268717
144	0xbd402eeb	-0.046919744
145	0x3e815a83	0.25264367
146	0x3e87c0c7	0.26514265
147	0x3d7746a0	0.060370088
148	0xbe3a922a	-0.1821982
149	0x3e87e24e	0.26539844
150	0xbefbe175	-0.49195448
151	0x3db9e9a8	0.090777695
152	0xbeb1fba0	-0.34762287
153	0xbdc60e2e	-0.09670673
154	0xbd236c2e	-0.03989809
155	0x3d863eda	0.06554957
156	0xbe3aa1bb	-0.18225758
157	0x3d9b8ac6	0.07594828
158	0x3eb71f4d	0.35766068
159	0xbd271db6	-0.04079982
160	0x3b250ca3	0.0025184534
161	0xbee191db	-0.4405659
162	0x3cab9978	0.020947203
163	0x3f788708	0.9708104
164	0xbe70fc64	-0.2353378
165	0xbe2a170d	-0.16610356
166	0x3f22ed10	0.6364298
167	0xbddc5032	-0.107574835
168	0x3efefd34	0.49802554
169	0x3dd26aac	0.10274252
170	0xbecbf212	-0.39833122
171	0x3cfea38a	0.03108384
172	0xbdd06fdf	-0.10177588
173	0x3e3fcea7	0.18731175
174	0xbb124a88	-0.0022322256
175	0xbe162450	-0.1466229
176	0x3efdfcfe	0.4960708
177	0xbd3334ce	-0.04375153
178	0xbe5dfc9e	-0.21678397
179	0xbe89e868	-0.26935124
180	0x3d642e04	0.055707946
181	0x3ddcc59e	0.1077988
182	0x3e2a3d76	0.16625008
183	0x3d90cd3e	0.07070397
184	0x3e36079d	0.17776342
185	0xbe0af987	-0.1357175
186	0xbe1904e2	-0.14943269
187	0xbf29ea33	-0.66372985
188	0xbdbe11d2	-0.09280743
189	0x3e79cd52	0.2439473
190	0x3e2bad3f	0.16765307
191	0xbd0138e1	-0.031548385
192	0xbe434aea	-0.19071546
193	0x3daf92eb	0.08572944
194	0xbe6ee37e	-0.23328969
195	0x3ca7c182	0.020478014
196	0xbde07b88	-0.10961062
197	0xbcda1a77	-0.026623948
198	0x3efdcd51	0.49570706
199	0x3eaea15f	0.3410749
200	0xbd9232f0	-0.07138622
201	0x3ea760e5	0.32691112
202	0xbf3f70c6	-0.74781454
203	0xbe3cdf9d	-0.18444677
204	0xbe53ae69	-0.20672001
205	0x3dc8515d	0.09781144
206	0x3e2e69a6	0.17032489
207	0xbeaf79c4	-0.34272587
208	0x3e0a9ab2	0.13535574
209	0x3effcfac	0.4996313
210	0x3f03f143	0.5154001
211	0x3e0bbbeb	0.13645904
212	0xbe74c18c	-0.23901957
213	0xbeb304a3	-0.34964475
214	0xbe900df9	-0.2813566
215	0xbf08bf58	-0.5341697
216	0xbc61c0f0	-0.01377891
217	0xbeb061f1	-0.34449723
218	0x3e29d0bf	0.16583537
219	0x3e070cb6	0.13188443
220	0xbde4f6a9	-0.11179859
221	0x3f0a889b	0.54114693
222	0x3e238d6c	0.15971917
223	0xbe4ff81a	-0.20309487
224	0x3ef98c67	0.4873993
225	0x3e069092	0.13141087
226	0xbdf2e2d8	-0.11859673
227	0x3dae457a	0.08509345
228	0xbbb81abb	-0.005618421
229	0xbe137270	-0.14399123
230	0x3e299dc3	0.16564088
231	0x3ec7eed5	0.39049402
232	0x3e10d39c	0.14143223
233	0x3c85ffce	0.016357329
234	0x3d49b239	0.049242232
235	0x3ef95b95	0.48702684
236	0xbda283d1	-0.07935298
237	0xbe39f885	-0.18161209
238	0xbecfc0a5	-0.40576664
239	0x3ecf96eb	0.4054483
240	0xbe9e15e3	-0.30876073
241	0x3eb5a428	0.35476804
242	0x3bcf5bfc	0.006328104
243	0xbd647406	-0.05577471
244	0xbdbf635e	-0.09345125
245	0xbdfd6e36	-0.12374537
246	0x3e423689	0.18966116
247	0x3e4db17b	0.20087235
248	0x3ece21b1	0.4026008
249	0xbe706244	-0.23474985
250	0xbdc2b07d	-0.09506319
251	0xbced29b8	-0.028950557
252	0xbca1b84f	-0.019741205
253	0x3e9cf588	0.30656075
254	0x3e284be0	0.16435194
255	0x3dbf209d	0.09332392

mlp_extractor.policy_net.2.bias f4 [64]
0	0x3d6c7c30	0.057735622
1	0xbc22d0c8	-0.009937473
2	0xbe6b1f64	-0.22961193
3	0x3e15bac5	0.14622028
4	0xbd3d7d8a	-0.0462623
5	0xbe0e54a0	-0.1389947
6	0xbe39beba	-0.18139163
7	0xbe3b847e	-0.1831226
8	0xbd025e4a	-0.031828202
9	0x3dc81647	0.09769874
10	0x3df5c8d0	0.120011926
11	0x3e642d98	0.22283018
12	0xbc80c233	-0.015717601
13	0xbe7ecd4e	-0.24883005
14	0xbd815caa	-0.063165024
15	0x3e163595	0.14668877
16	0x3deeb2b4	0.11655179
17	0xbe05c071	-0.13061692
18	0x3cf31024	0.029670782
19	0xbbcfa469	-0.006336738
20	0x3ccef25c	0.02526205
21	0xbdd26b3e	-0.10274361
22	0xbe3d3368	-0.18476641
23	0xbd34cb74	-0.04413934
24	0xbcffcd2a	-0.03122576
25	0x3d8a184b	0.06742915
26	0x3e23b465	0.15986784
27	0xbe37f1df	-0.1796336
28	0xbd6312c9	-0.055437837
29	0x3dce2742	0.100660816
30	0x3d090bf8	0.03345868
31	0x3d973497	0.073830776
32	0xbe3fc575	-0.18727668
33	0x3e35cf4d	0.1775486
34	0x3db26e88	0.087124884
35	0xbd46d525	-0.048543114
36	0xbeb26d10	-0.34848833
37	0x3e800275	0.25001875
38	0x3e68608d	0.22693081
39	0xbe408d6e	-0.18803951
40	0xbd3bbf6f	-0.045836862
41	0xbd917264	-0.071018964
42	0xbd902206	-0.070377395
43	0xbded57ce	-0.11589013
44	0xbe2fdf4b	-0.17175023
45	0x3c0fe09a	0.0087815765
46	0x3d655dfc	0.055997834
47	0x3e3183bf	0.17335413
48	0x3d804bf8	0.0626449
49	0x3e0c8b61	0.13725044
50	0xbe0384bd	-0.12843604
51	0x3e79fa8b	0.24411981
52	0x3da173b6	0.07883398
53	0xbd8a4333	-0.067510985
54	0x3e102ae5	0.14078863
55	0xbd839196	-0.06424253
56	0x3d0cacb0	0.034344375
57	0xbe69a0ea	-0.2281529
58	0x3ca17503	0.019709116
59	0xbc36224a	-0.011116574
60	0xbeb33d41	-0.3500767
61	0xbd88f1fd	-0.066867806
62	0x3cdc4891	0.026890071
63	0xbd478467	-0.048710253

mlp_extractor.value_net.0.weight f4 [64, 96]
0	0xbe259ee8	-0.16173899
1	0xbd45eb52	-0.048320122
2	0x3e8da9e2	0.27668673
3	0xbd530824	-0.051521435
4	0xbe198190	-0.1499083
5	0xbead80ca	-0.3388732
6	0x3e7d1f48	0.24718964
7	0x3e04ae9f	0.12957238
8	0x3d184fae	0.037185363
9	0xbe5561f1	-0.20838143
10	0x3e05d1f3	0.1306837
11	0x3edcbcf7	0.4311292
12	0x3eb78386	0.35842532
13	0x3e56157d	0.20906635
14	0x3da15a31	0.07878531
15	0x3e830953	0.2559305
16	0x3d11f969	0.035638247
17	0xbe8f03dd	-0.27932635
18	0x3cf2abad	0.029622877
19	0x3f0237d7	0.50866455
20	0x3e16ff5b	0.14745848
21	0x3ee0fc40	0.4394245
22	0x3dea88df	0.11451887
23	0xbe3ca767	-0.18423234
24	0xbea1a27b	-0.31569275
25	0x3c9f9bd8	0.019483492
26	0x3defc19c	0.1170685
27	0xbdf9e11c	-0.12201139
28	0xbe944b5b	-0.28963742
29	0x3d54ad21	0.05192292
30	0x3e5759a5	0.2103029
31	0xbed286f8	-0.41118598
32	0x3ea693de	0.3253469
33	0xbdbda70c	-0.09260377
34	0xbe021bf3	-0.12705974
35	0x3d42741f	0.047474023
36	0x3dad6e33	0.084682845
37	0x3c53b708	0.012922056
38	0xbe93b078	-0.28845572
39	0xbb64696b	-0.0034852873
40	0xbf060303	-0.52348346
41	0xbe149063	-0.14508204
42	0x3da933e3	0.0826185
43	0xbcd0419c	-0.02542191
44	0xbd0dfa4c	-0.03466253
45	0xbc0ccf6f	-0.008594378
46	0x3bf7363c	0.007544307
47	0xbc752bc1	-0.014964045
48	0xbd8b3b76	-0.06798451
49	0xbcca37fd	-0.0246849
50	0xbe18f3c8	-0.14936745
51	0xbc476059	-0.012168967
52	0xba695c53	-0.0008902002
53	0xbd6cad29	-0.057782326
54	0x3c3de303	0.011589768
55	0x3e9f8bc7	0.3116133
56	0x3dadb38d	0.08481512
57	0xbd3c9b92	-0.0460468
58	0x3c54110d	0.012943518
59	0x3da69532	0.081339255
60	0x3e87d7c4	0.26531804
61	0xbead6fae	-0.33874267
62	0x3e7e53bd	0.24836631
63	0x3e343a2c	0.17600316
64	0xbe01fa75	-0.12693198
65	0xbd6d8bc9	-0.057994638
66	0x3da111dc	0.078647345
67	0xbd42f971	-0.047601167
68	0xbc1b374f	-0.009473636
69	0x3e046f70	0.12933135
70	0x3dee7d0b	0.11644944
71	0xbe8502ad	-0.25978604
72	0x3e363047	0.17791854
73	0xbdbcca64	-0.092182904
74	0x3d1bdd79	0.03805301
75	0xbe04c8be	-0.12967202
76	0x3e08c784	0.13357359
77	0x3ce257f9	0.02762984
78	0xbdaf24dd	-0.08551953
79	0x3dce6a73	0.10078897
80	0xbe323e91	-0.1740668
81	0x3d51535b	0.051104885
82	0xbe372501	-0.1788521
83	0xbdf1006e	-0.1176766
84	0x3d709e5f	0.058744784
85	0x3e3155c3	0.17317872
86	0xbd1c0383	-0.038089287
87	0x3e692558	0.22768152
88	0xbea50803	-0.32232675
89	0x3e79e2c2	0.24402907
90	0x3e57bb81	0.21067621
91	0xbea1972b	-0.31560645
92	0x3cb12743	0.021625167
93	0xbc359842	-0.011083664
94	0x3dd2f95b	0.10301467
95	0x3d05ef86	0.03269913
96	0xbe60ace1	-0.21940948
97	0xbdabf759	-0.08396787
98	0xbce13226	-0.027489733
99	0xbd08e275	-0.03341909
100	0x3d15e36d	0.036593843
101	0x3e0cf502	0.13765338
102	0xbe818d24	-0.25302994
103	0xbe2c9e98	-0.16857374
104	0xbe39ab39	-0.18131723
105	0xbe13741a	-0.14399758
106	0x3dbea58c	0.09308919
107	0xbed996c8	-0.4249785
108	0xbd6157a3	-0.055015218
109	0xbe149124	-0.14508492
110	0x3c8cb8de	0.017177995
111	0x3d33d751	0.043906514
112	0x3e0637b3	0.13107185
113	0xbf00ec03	-0.50360125
114	0xbf013584	-0.50472283
115	0x3e0dd8fb	0.13852303
116	0xbe24c0f7	-0.16089235
117	0x3e1c398d	0.15256329
118	0x3ebf4896	0.37360066
119	0x3db16ff3	0.08663931
120	0x3e7c433f	0.24635027
121	0x3ed67f5f	0.4189405
122	0xbdef790b	-0.11693009
123	0xbc0581d2	-0.008148627
124	0x3e45b9d0	0.19309163
125	0xbe47d1ad	-0.19513579
126	0xbe0d1c7a	-0.13780394
127	0xbd47d5a9	-0.048787747
128	0x3df9d5b7	0.12198966
129	0xbe27391d	-0.1633038
130	0xbe908f3a	-0.28234273
131	0xbea9a2df	-0.33132073
132	0x3e1c6f73	0.1527689
133	0x3dacd39b	0.08438798
134	0xbe06beb5	-0.13158686
135	0xbe90a8ec	-0.28253877
136	0xbe59325d	-0.21210618
137	0xbdb8af1b	-0.09017774
138	0xbbd15c69	-0.00638919
139	0x3d57f896	0.052727304
140	0x3d90efb5	0.070769705
141	0x3d784795	0.06061514
142	0x3e73740b	0.23774736
143	0xbd159acb	-0.036524575
144	0x3db09982	0.08623029
145	0xbe199fd8	-0.15002382
146	0xbe658249	-0.22412981
147	0xbd5bf007	-0.053695705
148	0x3e14f0c0	0.14544964
149	0x3d13508c	0.035965487
150	0x3da76804	0.08174136
151	0x3e878e16	0.2647559
152	0x3c86e65b	0.016467264
153	0xbd3716a7	-0.044699337
154	0x3e131e67	0.14367066
155	0xbdf245a1	-0.11829687
156	0xbe2b3d0e	-0.1672251
157	0xbd2841fd	-0.041078556
158	0xbf05e110	-0.52296543
159	0x3eede2f2	0.46462208
160	0xbe690295	-0.22754891
161	0x3e4093cc	0.1880638
162	0xbd106933	-0.035256576
163	0xbde93a9d	-0.11388133
164	0x3ed15cf3	0.40891227
165	0x3e41dec9	0.18932642
166	0x3da539d4	0.080676705
167	0x3e087cb6	0.13328823
168	0x3e72a281	0.23694803
169	0xbdab1635	-0.08353845
170	0xbec4fdc0	-0.38474846
171	0x3d70a619	0.058752153
172	0x3e5365fa	0.2064437
173	0xbe8b22cb	-0.27174982
174	0xbd68199b	-0.056665044
175	0x3e82b96b	0.25532088
176	0x3ddb904c	0.10720882
177	0x3d82a244	0.06378606
178	0xbebd9e09	-0.37034634
179	0x3e85779e	0.26067823
180	0x3e2b764f	0.1674435
181	0x3e09cc9e	0.13456962
182	0x3d8c3a62	0.06847073
183	0xbcccbbc6	-0.024991881
184	0xbd7714a3	-0.060322415
185	0x3dc560ba	0.0963759
186	0x3d780523	0.060551774
187	0x3d80d4f8	0.062906206
188	0xbcd5066a	-0.026004035
189	0xbe65259d	-0.2237763
190	0xbda51509	-0.08060653
191	0x3bd7f05f	0.0065899338
192	0xbdcc795e	-0.099840865
193	0xbdeba05e	-0.11505197
194	0x3ead1e70	0.33812284
195	0xbe115de8	-0.14195979
196	0x3e5912ab	0.21198528
197	0xbee8a931	-0.45441583
198	0x3e2e323c	0.1701135
199	0x3f17bb9e	0.59270656
200	0xbd1b9f58	-0.03799376
201	0xbe9f0fa2	-0.31066614
202	0x3caea92f	0.021320907
203	0x3eab9eb7	0.33519527
204	0x3e1f0a53	0.15531282
205	0x3ddcd9db	0.1078374
206	0x3e6f5a94	0.23374397
207	0x3ef16f1f	0.4715509
208	0x3f175874	0.59119344
209	0x3c8d330a	0.017236251
210	0xbf064ba6	-0.5245918
211	0x3f1d3eb1	0.61423784
212	0x3f1a2ee7	0.6022782
213	0x3deb29aa	0.11482556
214	0x3e3210f8	0.17389286
215	0x3d00d1c0	0.031450033
216	0x3e0724aa	0.1319758
217	0x3e30027b	0.17188446
218	0xbec44224	-0.3833171
219	0xbda20f31	-0.07913054
220	0xbd28a3d4	-0.041171864
221	0x3e15d15a	0.14630643
222	0x3ec9f91a	0.39447862
223	0xbe4900df	-0.19629239
224	0x3eae27c9	0.3401473
225	0x3ee14868	0.44000554
226	0x3f2fa564	0.6861174
227	0xbefb6c8d	-0.49106255
228	0xbf22bd3d	-0.63570005
229	0x3f20dcc1	0.62836844
230	0x3eea7c57	0.4579799
231	0x3dc14c56	0.09438388
232	0x3dc650fc	0.09683415
233	0xbd6fc6e9	-0.058539305
234	0x3bd6f3fc	0.006559847
235	0x3daf2b0a	0.08553131
236	0xbc1e0066	-0.00964365
237	0x3bb13465	0.0054078572
238	0xbe440445	-0.19142254
239	0xbe192ce5	-0.14958532
240	0xbd390385	-0.045169372
241	0xbe28a071	-0.16467454
242	0xbe906598	-0.2820251
243	0xbda9fa33	-0.08299675
244	0x3c06af21	0.008220465
245	0xbcbed0a9	-0.023292856
246	0x3dc679c6	0.09691195
247	0xbb84a958	-0.0040485077
248	0xbe7c95f3	-0.24666576
249	0x3c99931c	0.018746905
250	0x3c72d444	0.014821116
251	0x3c25bd09	0.01011587
252	0x3dac3858	0.08409184
253	0x3e8dfe27	0.27732965
254	0xbbc7a643	-0.006092818
255	0x3e5a6d2d	0.2133071

mlp_extractor.value_net.0.bias f4 [64]
0	0x3f1182f0	0.5684042
1	0x3e2aaa90	0.16666627
2	0xbf0970ea	-0.5368792
3	0x3f64a077	0.8930735
4	0x3fc5d3c1	1.5455247
5	0xbf7ec9e7	-0.9952683
6	0xbf486a14	-0.7828686
7	0x3f381cf3	0.71919173
8	0x3f044102	0.51661694
9	0xbe35439a	-0.17701569
10	0xbd2eb7e5	-0.042655844
11	0x3ebf50a6	0.37366217
12	0x3f030aa3	0.51188105
13	0x3fa67087	1.3003091
14	0xbf10ca5e	-0.5655879
15	0xbf376aad	-0.7164715
16	0x3eb73011	0.3577886
17	0xbe60030f	-0.21876167
18	0x3e5aa8b2	0.21353415
19	0x3f4b5327	0.79423755
20	0x3f9c8b86	1.2230079
21	0x3f15c2c9	0.58500344
22	0xbe8cbf3d	-0.27489653
23	0xbe920c0d	-0.2852482
24	0xbd9131a6	-0.07089548
25	0xbf151af3	-0.58244246
26	0x3e4c44fc	0.1994819
27	0xbf72a13b	-0.9477727
28	0x3f635183	0.8879625
29	0xbec18525	-0.37796894
30	0x3dde34d8	0.10849923
31	0xbebeef79	-0.37292078
32	0x3edd5cf9	0.43234995
33	0xbf4005b7	-0.7500872
34	0xbb71fbb0	-0.00369237
35	0x3f0c68b7	0.5484728
36	0xbf2048d5	-0.6261113
37	0xbf1fd6e9	-0.624373
38	0xbe8b970e	-0.27263683
39	0x3f7ed30d	0.9954079
40	0x3eb876fb	0.36028275
41	0xbf6b9b4e	-0.9203385
42	0x3f0bf6a1	0.546732
43	0x3e9697e5	0.2941276
44	0xbf7848e1	-0.96986204
45	0x3edcb8f5	0.4310986
46	0xbe313f33	-0.17309265
47	0xbf22f90a	-0.63661253
48	0x3ddae87a	0.10688873
49	0x3f3c7fae	0.73632324
50	0x3e129e3f	0.14318179
51	0xbd802e78	-0.06258863
52	0xbe564b01	-0.20927049
53	0x3e722d09	0.23649992
54	0xbdc1db12	-0.094656125
55	0xbf37a5d7	-0.71737427
56	0x3bd596bf	0.0065182145
57	0x3f245c00	0.6420288
58	0x3f4dd86d	0.80408365
59	0xbefc6a2a	-0.49299747
60	0x3cea31e5	0.028588245
61	0xbec422c0	-0.38307762
62	0xbdbc11dc	-0.09183094
63	0xbf8abbd4	-1.083857

mlp_extractor.value_net.2.weight f4 [64, 64]
0	0x3d85df5f	0.06536745
1	0xbe1b73d0	-0.15180898
2	0x3e3fc2fe	0.18726727
3	0xbd3552dc	-0.044268474
4	0x3e676ecf	0.22600864
5	0x3dc09fbf	0.09405469
6	0xbe66bf62	-0.22533944
7	0x3e0d10c4	0.13775927
8	0x3e2a9ded	0.16661806
9	0x3e39d031	0.18145825
10	0x3da55bcd	0.0807415
11	0xbe12da6b	-0.14341132
12	0xbe289dab	-0.16466396
13	0x3e245aae	0.16050217
14	0xbdb16ca0	-0.08663297
15	0xbd8d1db6	-0.068904325
16	0xbd9ef63d	-0.0776181
17	0xbe10ea7f	-0.14151953
18	0xbd106b37	-0.035258498
19	0xbe7a9a36	-0.2447289
20	0xbdd0ca9b	-0.10194894
21	0xbe3f9c58	-0.18711984
22	0xbd0a8088	-0.033813983
23	0xbe1b86d8	-0.15188158
24	0x3e7e46f8	0.2483176
25	0xbb6cdf0e	-0.0036143693
26	0xbe8abe30	-0.27098227
27	0x3c50325b	0.012707318
28	0xbd490bd3	-0.049083542
29	0xbdb1289d	-0.086503245
30	0x3d93320f	0.07187282
31	0xbe0cdadf	-0.13755368
32	0x3e1a0eb8	0.15044677
33	0xbe5e8e10	-0.2173388
34	0xbe387e1d	-0.18016858
35	0x3ea685f7	0.32524082
36	0x3e389e66	0.18029174
37	0xbd3cf1d2	-0.046129055
38	0x3e538e8f	0.2065985
39	0x3eb0c0f7	0.3452222
40	0x3e319023	0.1734014
41	0xbe19f986	-0.15036592
42	0x3e858b28	0.2608273
43	0x3d9dc389	0.07703311
44	0x3debb913	0.115099095
45	0xbdf03744	-0.11729291
46	0x3ac6b611	0.0015160461
47	0xbbf6e2aa	-0.0075343447
48	0xbe4bbb5c	-0.1989569
49	0x3d332efd	0.043745983
50	0x3d7b669e	0.06137716
51	0x3c05769e	0.008145956
52	0x3d750940	0.059823275
53	0x3c1eb1ad	0.009685916
54	0xbe64e05e	-0.22351214
55	0xbd23161c	-0.039816007
56	0xbda704c2	-0.08155204
57	0x3dd1d7a6	0.1024621
58	0xbc15decf	-0.00914736
59	0x3e17beac	0.1481883
60	0x3c808686	0.015689146
61	0x3db6bb81	0.08922482
62	0xbe5f1f25	-0.21789224
63	0xbe50217e	-0.20325276
64	0xbbc2b6bc	-0.005942194
65	0xbda48306	-0.08032803
66	0x3e4f9a61	0.20273735
67	0x3eb00991	0.343823
68	0x3caf24bd	0.021379823
69	0xbe623afa	-0.2209281
70	0xbe5a19eb	-0.2129895
71	0xbbef554d	-0.00730387
72	0x3e368f21	0.17828037
73	0x3e0370df	0.12836026
74	0x3c80c50a	0.015718956
75	0x3e0b3f04	0.13598257
76	0x3e14a34c	0.14515418
77	0x3f1f8ece	0.6232728
78	0x3dbb06b7	0.0913214
79	0x3e0c6dd7	0.13713776
80	0x3e20ba3d	0.15696044
81	0xbe717a1b	-0.23581736
82	0x3e2beb22	0.16788915
83	0x3ef60cfa	0.48056775
84	0x3e7367ff	0.2377014
85	0x3e9f1493	0.31070384
86	0x3e6c7f12	0.23095348
87	0xbea0887a	-0.31354123
88	0x3ccceb51	0.025014551
89	0xbe4d8d1d	-0.20073362
90	0x3d73b66e	0.05950015
91	0xbebe2e7f	-0.3714485
92	0x3ca76749	0.020434992
93	0xbe812ce0	-0.2522955
94	0xbda5f239	-0.08102841
95	0x3d8aeaa9	0.06783039
96	0x3e1c2ea1	0.15252163
97	0xbf23292e	-0.6373471
98	0xbe1a2cfd	-0.15056224
99	0xbdc04388	-0.093878806
100	0xbe6b9e20	-0.23009539
101	0xbdc2fc2e	-0.09520756
102	0xbd5d3b3f	-0.05401158
103	0xbd62116e	-0.055192403
104	0xbd4b581b	-0.04964457
105	0xbebd12cc	-0.36928403
106	0x3d7a71e0	0.061143756
107	0x3d06e836	0.032936297
108	0xbcaa45b6	-0.020785194
109	0xbc80e6cb	-0.01573505
110	0x3d508d20	0.050915837
111	0xbded84d8	-0.115976036
112	0x3ecaff4a	0.39647895
113	0x3dd9ca5d	0.10634301
114	0xbea86f10	-0.32897234
115	0x3e13d779	0.14437665
116	0x3cc13dc9	0.023589032
117	0xbd89e4e3	-0.0673311
118	0x3dd3fe08	0.10351187
119	0x3da82a58	0.082112014
120	0xbe34e55f	-0.17665623
121	0x3decb093	0.11557116
122	0xbca53c76	-0.020170432
123	0x3e6d0b8f	0.2314894
124	0x3e0cb777	0.13741861
125	0x3d2bd451	0.041950528
126	0xbe1b66e5	-0.1517597
127	0x3deb28f3	0.1148242
128	0x3e54dec7	0.20788108
129	0x3d721e94	0.059111193
130	0x3e1d7e7b	0.1538028
131	0xbd84307a	-0.06454559
132	0x3dba7f0d	0.09106264
133	0x3eb2ce59	0.34923056
134	0xbe08513b	-0.13312237
135	0xbe1f29ef	-0.1554334
136	0xbf00eb7e	-0.5035933
137	0x3eb75d3b	0.35813317
138	0x3ec4eb86	0.3846094
139	0xbcbf066e	-0.023318496
140	0xbe17b173	-0.14813785
141	0x3e3a31a7	0.18183003
142	0xbc5150a6	-0.012775576
143	0x3ba1acfb	0.004933951
144	0x3cce270c	0.025165103
145	0x3d1acbc7	0.037791993
146	0xbd95f5b5	-0.073222555
147	0x3e4db51c	0.20088619
148	0xbd6c5fb0	-0.057708442
149	0xbc087d84	-0.0083307065
150	0xbee50f40	-0.44738197
151	0xbd4280c2	-0.047486074
152	0xbdc9035d	-0.098150946
153	0x3ec0172e	0.37517685
154	0x3f099c76	0.53754365
155	0x3e0fd67e	0.14046666
156	0x3e466bf5	0.1937712
157	0xbe0c987f	-0.13730048
158	0xbd719185	-0.05897667
159	0x3ea743a2	0.32668787
160	0x3d9a5c26	0.07537107
161	0xbe5b2b70	-0.21403289
162	0xbe5b455b	-0.21413176
163	0xbec52b9e	-0.3850984
164	0xbef1e18e	-0.47242397
165	0xbe00042d	-0.12501593
166	0xbe8d6c0c	-0.27621496
167	0x3c2a3c45	0.010390346
168	0xbe64be4c	-0.22338217
169	0x3dc77da6	0.097407624
170	0x3ebab2a1	0.36464408
171	0x3e3c7a5a	0.18406048
172	0x3c5ea980	0.013590217
173	0x3d419a95	0.04726656
174	0xbdd3d100	-0.10342598
175	0x3d6228de	0.055214755
176	0x3e1d929f	0.15387963
177	0xbd799d25	-0.06094088
178	0xbe220ce1	-0.15825225
179	0xbe1eca20	-0.15506792
180	0x3ebb1095	0.3653609
181	0xbd006127	-0.03134265
182	0x3dac6de4	0.084193975
183	0x3e89ba02	0.26899725
184	0x3f15383a	0.5828892
185	0xbcb04237	-0.021515949
186	0xbdbbd467	-0.09171372
187	0x3d29f526	0.041493557
188	0xbd152d7e	-0.036420338
189	0x3eb8ed67	0.36118624
190	0x3e2290fd	0.15875621
191	0xbd9c39bf	-0.07628202
192	0x3e9a49d4	0.3013445
193	0x3e938811	0.28814748
194	0xbe1f2755	-0.15542348
195	0x3cbd5fb1	0.023116918
196	0x3e9276dc	0.28606308
197	0xbdeaa8fc	-0.114580125
198	0x3db50f83	0.08840849
199	0xbdc756d4	-0.09733358
200	0x3f280eb8	0.6564746
201	0x3d2f7230	0.042833507
202	0xbce6f6a6	-0.028193783
203	0x3e212685	0.1573735
204	0xbeefd509	-0.4684222
205	0x3e145944	0.14487177
206	0xbeb1a07b	-0.3469275
207	0xbe9b2da2	-0.30308253
208	0xbd72c0da	-0.05926595
209	0x3dbe5b7d	0.09294794
210	0xbd76221d	-0.060091127
211	0xbd8af66c	-0.067852825
212	0xbde5b0ab	-0.11215337
213	0x3c328094	0.010894913
214	0xbe396115	-0.1810344
215	0xbe0c14e5	-0.13679846
216	0x3dbf5f62	0.09344365
217	0xbe727985	-0.23679169
218	0xbddd01b2	-0.10791339
219	0xbed456a3	-0.4147235
220	0x3e09e967	0.13467942
221	0xbe557762	-0.20846322
222	0xbde77805	-0.11302189
223	0xbdf9fe71	-0.12206734
224	0xbdf7d5ee	-0.12101351
225	0xbe07524e	-0.1321499
226	0x3e00c564	0.12575299
227	0x3e4240e9	0.18970074
228	0x3eb54917	0.35407326
229	0xbdbd5014	-0.09243789
230	0x3db2cd1b	0.08730527
231	0x3e175e54	0.14782077
232	0x3e9e9068	0.30969548
233	0xbe90a8c3	-0.28253755
234	0x3dd955e0	0.106120825
235	0xbe9d9aae	-0.30782074
236	0xbe96c8f6	-0.29450196
237	0x3da28d0b	0.07937058
238	0x3c83bc80	0.016081095
239	0x3e0c1562	0.13680032
240	0xbe91e402	-0.2849427
241	0x3e2e3890	0.17013764
242	0xbd2a2cd6	-0.041546665
243	0xbd90b06d	-0.070649005
244	0xbe39b7f9	-0.18136586
245	0x3e3682f1	0.17823388
246	0xbd693ab0	-0.056940734
247	0xbeb063f0	-0.34451246
248	0xbd84cd4a	-0.06484468
249	0x3e5693cb	0.20954816
250	0x3daf30b4	0.08554211
251	0xbe036552	-0.1283162
252	0xbe92c264	-0.28663933
253	0xbd14e476	-0.03635069
254	0x3dd88f5d	0.105742194
255	0xbe6b3b70	-0.22971892

mlp_extractor.value_net.2.bias f4 [64]
0	0x3e0e70ca	0.13910213
1	0x3f489ffb	0.7836911
2	0x3dc270a6	0.09494142
3	0x3e2d95bb	0.16951649
4	0x3f2e7b39	0.6815677
5	0xbe057fea	-0.13037077
6	0x3f7c9da9	0.9867807
7	0xbe148f6f	-0.1450784
8	0x3d9c6215	0.07635895
9	0x3d9ad19d	0.07559512
10	0xbf5449ad	-0.8292492
11	0xbefa16f3	-0.48845634
12	0xbdddd409	-0.10831458
13	0xbee52ef5	-0.44762388
14	0x3eb89f29	0.3605893
15	0xbe753ee0	-0.23949766
16	0x3c5ed469	0.013600447
17	0xbe3bd9fb	-0.18344872
18	0xbe2a2c36	-0.16618428
19	0x3e9b6c42	0.30356032
20	0xbe1d4d00	-0.15361404
21	0x3edca2b3	0.4309288
22	0x3e16dd8c	0.14732951
23	0x3e287952	0.1645253
24	0xbeda75c1	-0.42667964
25	0xbcc0503e	-0.023475762
26	0xbe9b99c3	-0.30390748
27	0x3f304939	0.6886173
28	0xbe15e854	-0.14639407
29	0x3f310cef	0.6916036
30	0x3e38523e	0.18000123
31	0x3d40b354	0.04704602
32	0x3f1de1c8	0.6167264
33	0xbdebce35	-0.1151394
34	0x3e1f84c8	0.15577996
35	0x3f9025b6	1.1261508
36	0xbee11402	-0.43960577
37	0xbd816211	-0.06317533
38	0x3e52a514	0.20570785
39	0xbe30c5ec	-0.17263001
40	0x3d89b891	0.067246564
41	0xbf479b92	-0.77971756
42	0x3e87f65b	0.26555142
43	0x3ee43e66	0.44578856
44	0xbe882fb9	-0.2659891
45	0x3cd0d4ca	0.02549209
46	0x3c977d09	0.018492239
47	0xbcea8213	-0.028626477
48	0x3f00c13e	0.50294864
49	0x3e512ab8	0.20426452
50	0xbd23d702	-0.03999997
51	0xbddb277b	-0.1070089
52	0x3e2e2585	0.170065
53	0xbda38f49	-0.07986314
54	0xbebbf653	-0.36711368
55	0x3f5d0f9c	0.86351943
56	0x3f29ae71	0.662818
57	0x3d8bbcbf	0.0682311
58	0x3d25e190	0.040498316
59	0xbbe339e3	-0.006934391
60	0xbcea6e5c	-0.028617077
61	0xbd6399ac	-0.055566475
62	0xbf27807b	-0.6543042
63	0xbd96d729	-0.07365257

action_net.weight f4 [4, 64]
0	0xbe974b73	-0.2954975
1	0x3efec68d	0.49760857
2	0x3eb907bc	0.36138713
3	0x3e74f306	0.23920831
4	0x3ebeadbe	0.3724193
5	0x3e5d3b23	0.2160459
6	0xbdc0de69	-0.09417421
7	0x3d15ef0f	0.036604937
8	0x3e32d65b	0.17464583
9	0x3e33c123	0.17554145
10	0xbe0c1a09	-0.13681807
11	0xbe45ed79	-0.1932887
12	0x3ea1e6ee	0.31621498
13	0xbdb3d98d	-0.08781729
14	0x3d0b6d7d	0.034039963
15	0x3c591155	0.013248761
16	0xbe8e2f74	-0.2777058
17	0xbd8377c7	-0.0641933
18	0xbcbac469	-0.022798734
19	0xbeb5551d	-0.354165
20	0xbeb43ab2	-0.3520103
21	0xbe51f7ce	-0.20504686
22	0x3e9a73bd	0.30166426
23	0xbed1d005	-0.4097902
24	0x3ed068cc	0.40704954
25	0x3eb7abaf	0.35873172
26	0x3e4661da	0.19373265
27	0x3d92e808	0.07173163
28	0xbed21065	-0.41028133
29	0xbe4f8c28	-0.20268309
30	0x3c6b8c56	0.01437672
31	0x3e4d652e	0.20058128
32	0x3e710363	0.23536448
33	0xbeb3d1f9	-0.35121134
34	0x3d2e5e20	0.042570233
35	0x3d317abd	0.043329943
36	0x3e17055c	0.14748138
37	0xbed42242	-0.41432387
38	0xbdb5dcea	-0.08880027
39	0xbd84bac9	-0.06480939
40	0x3d79d56e	0.060994558
41	0x3de7e863	0.11323621
42	0x3d3d32cd	0.046191026
43	0xbeee3799	-0.46526793
44	0x3e17d31e	0.14826629
45	0x3ea6e992	0.32600075
46	0x3cb20e23	0.021735257
47	0x3ee84d08	0.4537127
48	0x3e7462fb	0.23865883
49	0xbe9a1d34	-0.30100405
50	0x3e56cb2f	0.20975946
51	0x3e7332a4	0.23749787
52	0x3ea53c76	0.3227269
53	0xbbeddd62	-0.007259057
54	0xbe634580	-0.22194481
55	0xbe771b57	-0.24131523
56	0xbe880908	-0.2656939
57	0xbe9c45f1	-0.3052211
58	0x3ec64243	0.3872243
59	0x3e52b46b	0.20576636
60	0x3e8768e2	0.26447207
61	0x3ed46339	0.4148195
62	0xbf0194a7	-0.5061745
63	0x3e0993ad	0.1343524
64	0x3e487824	0.1957708
65	0xbea7090a	-0.32624084
66	0xbef5e52c	-0.48026407
67	0xbefa6dc8	-0.4891188
68	0xbe12d520	-0.14339113
69	0xbe4953a2	-0.1966081
70	0x3db3f947	0.0878778
71	0xbe8f1a9a	-0.27949983
72	0x3e366eef	0.17815755
73	0x3b9e3dbc	0.0048291367
74	0x3e4be2c5	0.19910724
75	0x3ee078c4	0.43842137
76	0xbccd3807	-0.02505113
77	0x3e71c541	0.23610403
78	0xbe462485	-0.19349869
79	0x3ec053f2	0.37564045
80	0xbe1ba9c1	-0.15201475
81	0x3ec6001a	0.38671952
82	0xbee635ca	-0.44962913
83	0x3e2f6843	0.17129616
84	0x3e56861a	0.20949593
85	0xbcd9a065	-0.02656574
86	0xbd1bb8cd	-0.038018037
87	0x3e8c8766	0.2744705
88	0xbe6d3b63	-0.23167185
89	0xbe137e00	-0.14403534
90	0xbf23504d	-0.63794404
91	0x3e658f34	0.22417909
92	0x3ea64601	0.32475284
93	0xbef05fe1	-0.4694815
94	0x3e06e051	0.13171507
95	0xbf1ddf3b	-0.6166875
96	0x3e228e1d	0.15874524
97	0x3e6d178b	0.23153512
98	0xbe235d57	-0.15953575
99	0xbedd23fe	-0.43191522
100	0x3ea8cd7b	0.3296927
101	0x3e2c0a04	0.16800696
102	0xbd1b8e8c	-0.03797774
103	0xbda08644	-0.07838109
104	0x3ed3fe7f	0.41405103
105	0x3d64f1b2	0.05589456
106	0x3da35710	0.0797559
107	0x3ea6bd66	0.32566375
108	0xbe41dcdf	-0.18931912
109	0x3d50f690	0.05101639
110	0x3df38c03	0.118919395
111	0xbe13920c	-0.14411181
112	0xbe4e753c	-0.20161909
113	0x3eef3f96	0.467282
114	0x3e5d35ed	0.21602602
115	0x3bb63d0e	0.0055614775
116	0xbec1e82a	-0.3787244
117	0x3e547201	0.20746614
118	0x3edb1cf0	0.42795515
119	0x3db4d478	0.08829588
120	0x3d44b54e	0.048024468
121	0x3e20b869	0.15695347
122	0xb8babc38	-8.9042296e-05
123	0xbe72c2cb	-0.2370712
124	0xbd1a7dfe	-0.03771781
125	0xbe6f2f57	-0.23357902
126	0x3ebf1d29	0.37326935
127	0xbec0f4a1	-0.37686637
128	0x3dbc00b5	0.09179822
129	0xbe21ccc6	-0.15800771
130	0x3e1e9c69	0.15489353
131	0x3e9524a2	0.2912951
132	0xbe6ec895	-0.23318703
133	0xbc12716e	-0.008938177
134	0x3c046c4d	0.008082462
135	0x3e86fb06	0.2636339
136	0xbec4b4ee	-0.38419288
137	0xbe45c51b	-0.19313471
138	0xbdbd0dc2	-0.0923114
139	0xbe8d0009	-0.2753909
140	0xbe98a3fe	-0.29812616
141	0xbe2b67c6	-0.16738805
142	0x3e3e5855	0.18588383
143	0xbed7ca9e	-0.42146772
144	0x3ee7e86e	0.45294517
145	0xbebc2b06	-0.36751574
146	0x3f073238	0.52811
147	0x3e3bc9a4	0.18338639
148	0x3e0cb0f8	0.13739383
149	0x3e843ae4	0.2582618
150	0xbe846189	-0.25855663
151	0x3e051906	0.12997827
152	0xbe2cc7ac	-0.16873044
153	0xbe57a540	-0.21059132
154	0x3f016ab5	0.50553447
155	0xbea9afd8	-0.3314197
156	0x3d98077f	0.07423305
157	0x3f3b16d2	0.73081696
158	0xbe217f59	-0.15771236
159	0x3eed90ca	0.46399528
160	0xbed5c8ad	-0.41754666
161	0x3ddf02f4	0.10889235
162	0x3e01798d	0.12644024
163	0x3edf2f6e	0.43590873
164	0xbf058e61	-0.5217038
165	0x3e82521a	0.25453264
166	0x3e026f90	0.1273787
167	0x3e2c2dfd	0.16814418
168	0xbf038118	-0.51368856
169	0xbe3474bb	-0.17622654
170	0xbe066008	-0.1312257
171	0x3dfc7148	0.12326294
172	0x3d40d5f6	0.04707905
173	0xbecbd769	-0.39812782
174	0xbe2717c7	-0.16317664
175	0xbea5da4c	-0.3239311
176	0xbcb0f828	-0.021602705
177	0xbe4c8152	-0.19971207
178	0xbeed3980	-0.46332932
179	0xbe81edd6	-0.25376767
180	0x3da30bd7	0.07961243
181	0xbe64209e	-0.22278067
182	0xbe6a6e05	-0.22893532
183	0x3e254ab2	0.16141775
184	0x3e5ae042	0.2137461
185	0x3e087315	0.1332515
186	0xbed8e922	-0.42365366
187	0x3d352548	0.044225007
188	0xbe6334cd	-0.2218811
189	0xbe449b94	-0.19199973
190	0x3e05ee3a	0.13079157
191	0x3e8f94bb	0.2804316
192	0xbe54ba2f	-0.20774148
193	0x3e05d16e	0.13068172
194	0x3e0fa3c2	0.14027312
195	0x3b0fbe88	0.0021933634
196	0x3e9d7a5e	0.3075742
197	0xbdad9c2d	-0.08477054
198	0xbdf45ab6	-0.11931364
199	0xbdd0d3eb	-0.1019667
200	0x3e10fc28	0.1415869
201	0x3e8454d8	0.2584598
202	0x3e82f357	0.2557628
203	0xbe37c606	-0.17946634
204	0xbd98a016	-0.07452409
205	0xbdbe63fa	-0.09296413
206	0x3dcf6ee8	0.101285756
207	0xbcf76773	-0.030200696
208	0xbd8791d9	-0.06619615
209	0xbb91800d	-0.0044403137
210	0xbdd69621	-0.104778536
211	0xbda16cf1	-0.07882107
212	0xbd9bdc6b	-0.07610401
213	0xbcf38cfa	-0.029730309
214	0x3c03be22	0.008040937
215	0x3e13b67f	0.14425085
216	0xbe8201c9	-0.25391987
217	0xbe7a9e9a	-0.24474564
218	0xbdb8e7df	-0.09028601
219	0x3d9d9285	0.07693962
220	0xbe54b52c	-0.20772237
221	0x3df36f77	0.118864946
222	0xbd299536	-0.041402064
223	0xbdfdf062	-0.12399365
224	0xbe5acefa	-0.21368018
225	0xbe199210	-0.14997125
226	0x3e323ee1	0.17406799
227	0x3ac0128f	0.0014653968
228	0xbd2b16de	-0.041769855
229	0xbe1337e0	-0.14376783
230	0xbe17aa41	-0.1481104
231	0x3e52b15a	0.20575467
232	0x3d030d81	0.0319953
233	0x3d8d3867	0.068955235
234	0x3ea688a1	0.32526115
235	0x3d9ad1b9	0.07559533
236	0x3d6720ab	0.05642764
237	0xbca25014	-0.019813575
238	0x3e7469e8	0.23868525
239	0xbe5b6d0e	-0.2142832
240	0xbc94b8a9	-0.01815446
241	0xbdf916f8	-0.12162584
242	0x3da8e9d4	0.08247724
243	0x3d692a30	0.056925
244	0xbd882813	-0.066482686
245	0x3dbaa000	0.09112549
246	0x3d42429a	0.047426797
247	0xbdbe93a8	-0.09305507
248	0xbcfdfafa	-0.031003464
249	0xbc0a4594	-0.00843944
250	0xbdb53a98	-0.088490665
251	0xbd3a0de2	-0.045423396
252	0xbe5b4c7e	-0.21415898
253	0x3e47e193	0.19519643
254	0x3b6d1d8e	0.0036180946
255	0x3d051573	0.03249116

action_net.bias f4 [4]
0	0xbd8cca5d	-0.06874535
1	0xbc3bbf58	-0.011459194
2	0x3db1801b	0.08667012
3	0x39e8785f	0.00044340172

value_net.weight f4 [1, 64]
0	0xbe0661f5	-0.13123305
1	0x3e364cdd	0.17802759
2	0x3d52656b	0.05136625
3	0xbea77204	-0.32704175
4	0x3ebc4dba	0.3677805
5	0x3dbb1544	0.091349155
6	0x3ed84904	0.42243207
7	0x3e30c240	0.172616
8	0x3db30f71	0.087431796
9	0x3d9c5b86	0.07634644
10	0xbefd9e02	-0.49534613
11	0x3e4c8ed5	0.19976361
12	0xbd9fe244	-0.078068286
13	0x3f144065	0.5791076
14	0xbeddb397	-0.4330108
15	0x3d3b61b4	0.045747474
16	0x3db9a600	0.09064865
17	0xbe0d8b7d	-0.13822742
18	0xbd4a9c41	-0.04946542
19	0xbdb6b72f	-0.08921658
20	0x3e8a94dd	0.270667
21	0x3e83d56b	0.25748762
22	0x3d95dbf5	0.07317344
23	0x3d307240	0.043077707
24	0xbe7f3af2	-0.2492483
25	0xbdfadfac	-0.12249693
26	0x3df996a3	0.12186935
27	0x3e3ebd7f	0.18626975
28	0xbe916257	-0.2839534
29	0xbf7ba40b	-0.98297185
30	0x3ceb5265	0.028725812
31	0xbd9f6a22	-0.07783915
32	0x3e2f0b27	0.17094098
33	0x3df1d7e1	0.11808754
34	0xbe94e81e	-0.2908334
35	0x3f15a176	0.58449495
36	0x3f9b0e2c	1.21137
37	0x3cc70371	0.024293633
38	0x3d401088	0.046890765
39	0x3e72bf04	0.23705679
40	0xbdd36165	-0.10321311
41	0xbeb1ae65	-0.34703365
42	0x3ee67b5d	0.45015994
43	0x3ebec75e	0.3726148
44	0xbe05253b	-0.13002484
45	0x3d56e093	0.052460264
46	0x3daac41c	0.08338186
47	0x3e24808e	0.16064665
48	0x3e480c48	0.19535935
49	0x3eb3fc6e	0.35153526
50	0xbd094bd4	-0.03351958
51	0xbda74d87	-0.08169084
52	0x3d9f8bb9	0.07790322
53	0x3e37977d	0.17928882
54	0xbe547fbe	-0.20751855
55	0x3edf3438	0.43594527
56	0x3ea076e9	0.3134072
57	0x3d9563ec	0.07294449
58	0x3d513582	0.05107642
59	0x3e91f0f5	0.28504148
60	0x3da1a8ae	0.07893501
61	0x3d6d1fe1	0.05789173
62	0xbea9ca54	-0.33162177
63	0xbd397c4e	-0.04528456
